moderation/models/ppo_policy.onnx (onnx, 2471 bytes, 4 tensors)

shared.0.bias f4 [64]
000000 48 95 12 be a5 1b 3c bd 44 72 ef 3d d5 6f 82 3e
       -0.14314759 -0.0459248 0.11691716 0.25475946
000010 79 e6 91 3d 7a da 76 3e 7c 68 31 be 4b a7 5c 3e
       0.07124037 0.2410678 -0.17325014 0.21548192
000020 05 20 49 3c c1 db 7d be a0 7a fc 3d a2 37 68 3e
       0.0122757 -0.2479086 0.12328076 0.22677472
000030 a5 25 c4 bd 63 40 68 3e 6e 34 37 3e 96 81 41 be
       -0.095774926 0.22680812 0.17891094 -0.1889709
000040 27 a2 91 be b3 5f 40 3e 1f cf ad bc 4e 78 8f be
       -0.28444025 0.18786506 -0.021216927 -0.28021473
000050 88 cc 13 3e c5 db 75 be e0 57 8f be 59 17 58 be
       0.14433491 -0.24009617 -0.2799673 -0.21102656
000060 d9 02 0a 3e 9a b1 8c be 4d 7a 3c 3e 7f d2 22 bd
       0.13477649 -0.2747925 0.18406029 -0.039751526
000070 ea c2 fa 3d 82 9e 53 be b0 85 66 be 78 91 4a 3d
       0.12244208 -0.20665935 -0.22511935 0.049455136
000080 4e fd 99 3e df 89 8a 3e 83 7c 0a be ae 65 36 3e
       0.3007607 0.27058312 -0.1352406 0.17812225
000090 29 62 01 be 4c dd dc bc 7f f1 7c bd 69 53 bb 3d
       -0.12635101 -0.026960991 -0.061753746 0.091467686
0000a0 66 8d 99 3e 1e e8 75 be 60 7d ee bc dc 96 91 be
       0.2999069 -0.24014327 -0.029112518 -0.2843541
0000b0 46 84 9e be 45 4b 3a be 51 7d 58 be fd 91 95 3e
       -0.30960292 -0.18192776 -0.21141554 0.29212943
0000c0 d4 73 30 3e 6f 2f bc bb 0c be 8c be fb 93 72 3e
       0.17231685 -0.005742959 -0.27488744 0.23689263
0000d0 63 4d 56 3e 77 e1 32 be c3 11 80 be a5 b7 d4 bd
       0.20927958 -0.1746882 -0.2501355 -0.1038659
0000e0 99 c7 b0 3d ce c2 b9 3d 99 45 a3 3e f6 07 bf 3d
       0.0863182 0.09070359 0.31889036 0.0932769
0000f0 f2 46 8b 3d c0 57 90 be 63 c0 40 3e 5e 9c 57 3e
       0.06800641 -0.28191948 0.1882339 0.21055743

shared.2.bias f4 [64]
000000 8e fc a0 bd 9a 5d 39 3d 58 f8 4a 3d a2 16 99 bd
       -0.07860671 0.04525528 0.049553245 -0.0747502
000010 54 81 77 3d 92 e3 9d 3d c4 72 60 3d b3 69 b5 3d
       0.06042607 0.07709421 0.05479695 0.08858051
000020 f3 17 2f 3d af f5 0d bd 1e 79 3a 3d 74 64 c6 3d
       0.04274745 -0.03465813 0.045525663 0.09687129
000030 63 97 55 3d 46 c5 1f 3d 8b 80 bc 3d a9 0b 86 bd
       0.052146327 0.039006494 0.09204205 -0.06545193
000040 a0 da 06 bc d5 55 c6 bd 1b ea 9c 3d 20 2b 2e 3d
       -0.008230835 -0.0968434 0.076618396 0.042521596
000050 b1 2b 55 3d c4 17 db 3d 35 1d cb bd 1d 82 35 3d
       0.05204362 0.10697892 -0.0991768 0.04431354
000060 be e9 c4 bc 13 88 a7 3d 81 2a 90 3d aa d0 a5 3d
       -0.024037238 0.08180251 0.07039357 0.0809644
000070 63 c8 2f 3a 11 a2 e0 3d 92 18 c8 3d 43 40 b6 3c
       0.000670558 0.10968412 0.097703114 0.02224744
000080 34 2a a9 bd e0 26 46 bc 74 cc fb 3b 4f 8e 65 3d
       -0.08260003 -0.012094229 0.007684285 0.05604392
000090 0c 09 9b bd ef 58 cf ba be 4f e8 b9 f8 57 f2 3d
       -0.07570085 -0.0015819351 -0.000443099 0.11833185
0000a0 80 52 1e bd cc 64 d5 bd 68 86 fb bc 05 3d c3 bd
       -0.038652897 -0.10419616 -0.030703738 -0.09533123
0000b0 a4 f4 d6 bd 72 48 da bd 7e ce 1e 3d e4 ef 07 bd
       -0.1049588 -0.10658349 0.038771145 -0.033187762
0000c0 ad c5 bb 3d f8 4c 75 3d 13 62 9a 3c b4 04 36 bd
       0.09168563 0.059887856 0.018845594 -0.04443808
0000d0 b4 9a 1f bd 04 47 3c 3d d6 3f 9a bd cf 1d 7e 3d
       -0.038965896 0.045966163 -0.07531707 0.062040146
0000e0 20 c8 23 bd 26 63 89 bd 50 1c 8d bd 14 b5 d4 3c
       -0.039985776 -0.06708364 -0.06890166 0.025965251
0000f0 0c 6b 0c bd d9 02 cc bc 8b 71 97 3d 92 9b ee 3d
       -0.034281775 -0.024903702 0.073947035 0.116507664

actor.0.bias f4 [5]
000000 c2 c3 d4 3d 1f ef c8 bd 70 fa b8 3d 72 00 8d 3d
       0.103889 -0.09811234 0.09032142 0.068848506
000010 d7 b0 a8 3d
       0.082368545

critic.0.weight f4 [1, 64]
000000 c0 5b b6 bc 8d 20 43 bd b3 60 84 bd 3c 48 11 3d
       -0.022260547 -0.047638465 -0.064637564 0.03546928
000010 8e 86 be bd bd 31 cb 3d 04 fa fa 3c ee 51 e8 3d
       -0.09303008 0.09921596 0.030636795 0.11343752
000020 e5 f6 83 bd d0 b1 9f bd 7f b8 ce bb b3 78 c8 3d
       -0.06443576 -0.07797587 -0.0063086147 0.097886465
000030 43 4b cf bd 60 2c 1a 3c f4 25 3a bd 8d d8 b0 bd
       -0.10121777 0.009409994 -0.04544635 -0.08635054
000040 2a 44 b9 3d a9 d8 b1 3d 06 d7 a6 3c 4c 85 bc 3d
       0.090462044 0.08683903 0.020366203 0.09205112
000050 1f 66 93 3c 93 e7 81 bd 3b 7b a0 3d 86 49 0b 3d
       0.017993031 -0.063429974 0.07836004 0.034005664
000060 f1 bc ef 3d d3 61 15 3d 17 78 91 3d db 4b 3e 3d
       0.117059596 0.036470246 0.071029834 0.04645906
000070 d6 ae 9d bd 45 2b 15 3d 46 41 85 3d 9c 00 03 3d
       -0.07699363 0.03641822 0.065065905 0.031983003
000080 84 07 a7 3d a0 7a 50 bc 35 65 02 bd 25 60 ce bd
       0.0815573 -0.012724549 -0.0318348 -0.10076932
000090 db a6 c5 b9 13 c4 a3 bd fa 04 c3 3d 38 7b 74 bd
       -0.00037699085 -0.079963826 0.095224336 -0.059687823
0000a0 90 28 df bd b4 6e b1 bd a0 69 36 bd 54 45 8c bd
       -0.108964086 -0.08663693 -0.044534326 -0.06849161
0000b0 ee 1a 8e 3d 2a 0e 58 3d 68 1b 04 bd 20 f8 6a bd
       0.0693873 0.052747883 -0.0322527 -0.057365537
0000c0 11 26 45 3d f8 e6 dc 3d 65 30 d4 bd b4 55 a8 bd
       0.048132006 0.10786241 -0.10360793 -0.082194716
0000d0 f8 0b f5 3d 6e 7a b6 3d 04 e9 8e 3c e4 09 67 bd
       0.119651735 0.0891007 0.017445095 -0.056405917
0000e0 b4 1e 96 3a e8 09 a3 3c bc eb e0 bd 50 95 97 bd
       0.0011453242 0.019902185 -0.10982463 -0.07401526
0000f0 e2 a9 a8 3d 22 3f ac 3d 29 f7 9b bc 52 13 49 3d
       0.082355276 0.08410479 -0.019038754 0.04909069
