models/ppo_policy.pt (torch, 73077 bytes, 21 tensors)

shared.0.weight f4 [64, 10]
0	0x3e8070e8	0.2508614
1	0xbea156d1	-0.31511548
2	0x3e6bb09d	0.23016591
3	0xbe607705	-0.21920402
4	0x3cbbd2ba	0.02292763
5	0x3e9c8c64	0.3057586
6	0xbdf6ae25	-0.12044934
7	0x3e47c6bb	0.19509403
8	0x3da571ad	0.080783226
9	0xbe101e78	-0.14074123
10	0x3d8be65e	0.068310484
11	0xbe257033	-0.16156082
12	0xbe4631e4	-0.1935497
13	0x3e3b56cb	0.18294828
14	0xbe1b196f	-0.15146421
15	0x3b5b0755	0.0033421118
16	0xbcca398c	-0.024685644
17	0xbe967947	-0.29389402
18	0xbd16a01a	-0.03677378
19	0xbdbeea58	-0.09322041
20	0x3d838a80	0.06422901
21	0x3da8a92e	0.082353935
22	0x3e523815	0.20529206
23	0xbe4af72c	-0.19820851
24	0x3e88104e	0.2657494
25	0xbe239ec6	-0.15978536
26	0x3e44d7a7	0.1922289
27	0xbe25f67c	-0.16207308
28	0x3e116a3d	0.14200683
29	0x3d87a03b	0.066223584
30	0x3ae4cffa	0.0017457001
31	0x3daef5fb	0.08543011
32	0xbe37a131	-0.17932583
33	0x3e7b6de7	0.24553643
34	0xbe1a0119	-0.15039481
35	0xbe9d93f3	-0.3077694
36	0xbe67059d	-0.22560735
37	0xbe5592ec	-0.20856827
38	0x3e819e60	0.25316143
39	0x3e8afb94	0.27145064
40	0xbe993661	-0.299243
41	0x3e0c1a47	0.13681899
42	0x3e4913e8	0.196365
43	0x3e0bc3c2	0.13648894
44	0x3e7e8cf5	0.24858458
45	0x3d05479e	0.032539003
46	0xbe60eec1	-0.21966077
47	0x3e49c7f2	0.1970518
48	0x3e86bb95	0.2631499
49	0x3e9158e1	0.28388122
50	0x3df602bc	0.1201224
51	0x3dd19b57	0.10234707
52	0xbd739199	-0.059465025
53	0xbe5d98fd	-0.21640392
54	0xbe863a2b	-0.26216254
55	0x3e81897a	0.253002
56	0x3e85e822	0.26153666
57	0x3e368d4b	0.17827336
58	0x3e90a38e	0.28249782
59	0xbd1295ce	-0.035787396
60	0xbdb2be17	-0.08727663
61	0x3e85bfda	0.26122934
62	0x3d892ace	0.066976175
63	0xbe272d38	-0.16325843
64	0x3e7c9660	0.24666739
65	0x3e7f751b	0.24947016
66	0xbd5521c7	-0.052034166
67	0x3ddb5d18	0.107111156
68	0x3e97ae0b	0.29624972
69	0x3e35b397	0.1774429
70	0x3db424aa	0.087960556
71	0xbd92f6bb	-0.07175966
72	0xbe66f61c	-0.22554821
73	0xbe1892ff	-0.14899825
74	0x3e2aefba	0.16693011
75	0x3e91e2e2	0.2849341
76	0xbea22522	-0.31668955
77	0xbe9c9c9a	-0.30588228
78	0xbdc0022f	-0.093754165
79	0x3d34a248	0.044100076
80	0x3b496503	0.0030730374
81	0x3c6ac24a	0.014328549
82	0xbe199556	-0.14998373
83	0x3e409ded	0.18810244
84	0xbe2b16cf	-0.1670792
85	0xbea40bba	-0.32040197
86	0x3d267c15	0.040645678
87	0x3c58adf5	0.013225068
88	0x3ddfe2ad	0.10931907
89	0xbd5bc093	-0.05365045
90	0xbe97b0e7	-0.29627153
91	0x3e675f39	0.22594918
92	0x3c11a817	0.008890173
93	0x3dece2c9	0.11566693
94	0x3d86f2bf	0.06589269
95	0xbe8c741d	-0.27432337
96	0xbe9dadb1	-0.3079658
97	0xbe87a7d3	-0.26495227
98	0x3d9f2404	0.07770541
99	0x3e358c7c	0.17729372
100	0x3e6dc747	0.2322055
101	0xbc210284	-0.00982726
102	0x3e4c336e	0.19941494
103	0xbd89ae2f	-0.06722676
104	0x3e2a118a	0.16608253
105	0x3e137620	0.1440053
106	0xbe6bab66	-0.23014602
107	0x3ea062e4	0.31325448
108	0x3db39c53	0.08770051
109	0x3e401920	0.18759584
110	0xbe76651b	-0.24062006
111	0xbe53b7fb	-0.20675652
112	0xbe6a0491	-0.22853304
113	0xbe5b9c2d	-0.21446295
114	0x3e957a37	0.29194805
115	0x3d321e93	0.04348619
116	0x3e8d77d3	0.2763048
117	0x3e4157e6	0.18881187
118	0x3e0e13d1	0.13874747
119	0xbc979691	-0.018504413
120	0xbdc72912	-0.097246304
121	0xbdaaa544	-0.08332303
122	0xbe5b43a3	-0.2141252
123	0x3e0a36f5	0.13497527
124	0x3e57f53b	0.21089642
125	0xbd62c198	-0.055360407
126	0xbe065e6e	-0.1312196
127	0x3d2c2e4f	0.04203635
128	0xbea22e0f	-0.31675765
129	0x3e89810d	0.2685627
130	0x3d2801a2	0.041017182
131	0x3d57579d	0.05257379
132	0xbda2528d	-0.079259016
133	0x3dcf48ae	0.101212844
134	0x3e741498	0.23835981
135	0xbdb535ca	-0.0884815
136	0xbe22415d	-0.15845247
137	0x3dab94b0	0.08377969
138	0xbdd0f0a1	-0.10202146
139	0x3d30eb3c	0.043193087
140	0x3e276168	0.16345751
141	0xbe690c22	-0.22758535
142	0xbcf28a05	-0.029606828
143	0x3e51c3c2	0.20484832
144	0x3e30bcca	0.17259517
145	0x3e96888a	0.29401046
146	0x3e455c00	0.19273376
147	0xbe61ca17	-0.22049747
148	0x3dce881a	0.10084553
149	0x3d16df18	0.036833853
150	0xbe92f380	-0.287014
151	0xbe7471bb	-0.2387151
152	0x3dca5e6d	0.098812915
153	0x3ca4003c	0.020019643
154	0xbe1140c0	-0.14184856
155	0x3dadd357	0.084875755
156	0x3e9915a1	0.29899314
157	0xbd8f3053	-0.06991639
158	0x3da91225	0.08255414
159	0xbbbf28b1	-0.005833708
160	0xbe923f18	-0.28563762
161	0x3e2f46d3	0.17116861
162	0xbe869012	-0.26281792
163	0xbea08cb3	-0.31357345
164	0xbd970c18	-0.073753536
165	0x3b32b877	0.0027270594
166	0xbe41d6a6	-0.18929538
167	0xbe231f1d	-0.15929838
168	0xbdb44708	-0.08802611
169	0xbe866202	-0.2624665
170	0x3d2bcaab	0.041941326
171	0x3d09ed26	0.033673428
172	0xbe6f8d2b	-0.23393695
173	0xbe8464d6	-0.25858182
174	0x3c70b034	0.014690448
175	0x3d5615fe	0.052267067
176	0x3cbaad71	0.022787781
177	0x3e138b1d	0.14408536
178	0xbe2e070c	-0.16994876
179	0x3cb17126	0.021660399
180	0x3e849387	0.25893804
181	0x3e612332	0.21986082
182	0xbe86a551	-0.26298
183	0x3e64bc53	0.22337465
184	0x3e7d8a46	0.24759778
185	0xbd1489df	-0.036264297
186	0x3d628e79	0.055311654
187	0x3e48ec46	0.19621381
188	0xbd9d9d18	-0.07695979
189	0x3e250f88	0.16119206
190	0xbe982e1c	-0.2972268
191	0xbe855a88	-0.26045632
192	0xbe91ada1	-0.2845278
193	0xbd8aae24	-0.06771496
194	0xbe8f6a2b	-0.28010687
195	0x3e5354e6	0.20637855
196	0xbe54ac94	-0.20768958
197	0x3e1e79dc	0.15476173
198	0xbe9994b2	-0.29996258
199	0x3e61b908	0.2204324
200	0xbe433a6e	-0.19065258
201	0xbe5d0c94	-0.2158683
202	0x3cf12e38	0.029440984
203	0xbe76606f	-0.24060224
204	0xbe8c6708	-0.27422357
205	0xbb9c238d	-0.00476498
206	0xbe993121	-0.29920295
207	0xbe95324c	-0.29139936
208	0xbe1502cb	-0.14551847
209	0x3e9ac8aa	0.3023122
210	0x3db18745	0.08668379
211	0xbe15c53c	-0.1462602
212	0xbe833254	-0.25624335
213	0x3e2fd60c	0.17171496
214	0xbdc58657	-0.09644764
215	0xbda095ee	-0.07841097
216	0x3e344aef	0.1760671
217	0x3e8c9229	0.2745526
218	0x3df1e61e	0.118114695
219	0x3e783aff	0.24241255
220	0x3e1fc45d	0.1560225
221	0x3e9ddb1d	0.30831233
222	0x3e0b3625	0.13594873
223	0xbd7ad1b9	-0.061235163
224	0xbd91557a	-0.070963815
225	0xbd04a889	-0.03238729
226	0x3e1f174c	0.15536231
227	0x3d050431	0.0324747
228	0xbde1593e	-0.1100335
229	0xbe6a7a8c	-0.2289831
230	0x3d707058	0.05870089
231	0x3e348712	0.1762965
232	0xbe9540e6	-0.29151076
233	0xbe53cade	-0.20682856
234	0xbe72acb4	-0.23698694
235	0x3e5edce9	0.21763958
236	0xbc9c79ba	-0.019101012
237	0xbd95f991	-0.07322992
238	0x3dd38614	0.10328308
239	0x3e33a0e0	0.17541838
240	0xbe93e4bc	-0.28885448
241	0xbde1daee	-0.11028086
242	0x3d0e60f8	0.034760445
243	0xbe833920	-0.2562952
244	0xbe46722f	-0.19379495
245	0xbe9c8293	-0.3056837
246	0x3e217950	0.15768933
247	0x3d79da94	0.060999468
248	0x3e4f028f	0.2021582
249	0x3e31854b	0.17336003
250	0xbe6734f7	-0.22578798
251	0x3e5349ef	0.20633672
252	0xbe0abd8b	-0.13548867
253	0xbe2c1c0a	-0.16807571
254	0xbbbde1c7	-0.005794737
255	0xbcf59412	-0.029977832

shared.0.bias f4 [64]
0	0xbe129548	-0.14314759
1	0xbd3c1ba5	-0.0459248
2	0x3def7244	0.11691716
3	0x3e826fd5	0.25475946
4	0x3d91e679	0.07124037
5	0x3e76da7a	0.2410678
6	0xbe31687c	-0.17325014
7	0x3e5ca74b	0.21548192
8	0x3c492005	0.0122757
9	0xbe7ddbc1	-0.2479086
10	0x3dfc7aa0	0.12328076
11	0x3e6837a2	0.22677472
12	0xbdc425a5	-0.095774926
13	0x3e684063	0.22680812
14	0x3e37346e	0.17891094
15	0xbe418196	-0.1889709
16	0xbe91a227	-0.28444025
17	0x3e405fb3	0.18786506
18	0xbcadcf1f	-0.021216927
19	0xbe8f784e	-0.28021473
20	0x3e13cc88	0.14433491
21	0xbe75dbc5	-0.24009617
22	0xbe8f57e0	-0.2799673
23	0xbe581759	-0.21102656
24	0x3e0a02d9	0.13477649
25	0xbe8cb19a	-0.2747925
26	0x3e3c7a4d	0.18406029
27	0xbd22d27f	-0.039751526
28	0x3dfac2ea	0.12244208
29	0xbe539e82	-0.20665935
30	0xbe6685b0	-0.22511935
31	0x3d4a9178	0.049455136
32	0x3e99fd4e	0.3007607
33	0x3e8a89df	0.27058312
34	0xbe0a7c83	-0.1352406
35	0x3e3665ae	0.17812225
36	0xbe016229	-0.12635101
37	0xbcdcdd4c	-0.026960991
38	0xbd7cf17f	-0.061753746
39	0x3dbb5369	0.091467686
40	0x3e998d66	0.2999069
41	0xbe75e81e	-0.24014327
42	0xbcee7d60	-0.029112518
43	0xbe9196dc	-0.2843541
44	0xbe9e8446	-0.30960292
45	0xbe3a4b45	-0.18192776
46	0xbe587d51	-0.21141554
47	0x3e9591fd	0.29212943
48	0x3e3073d4	0.17231685
49	0xbbbc2f6f	-0.005742959
50	0xbe8cbe0c	-0.27488744
51	0x3e7293fb	0.23689263
52	0x3e564d63	0.20927958
53	0xbe32e177	-0.1746882
54	0xbe8011c3	-0.2501355
55	0xbdd4b7a5	-0.1038659
56	0x3db0c799	0.0863182
57	0x3db9c2ce	0.09070359
58	0x3ea34599	0.31889036
59	0x3dbf07f6	0.0932769
60	0x3d8b46f2	0.06800641
61	0xbe9057c0	-0.28191948
62	0x3e40c063	0.1882339
63	0x3e579c5e	0.21055743

shared.2.weight f4 [64, 64]
0	0x3dfb1e26	0.1226161
1	0xbcc93658	-0.024562046
2	0x3daf3c1c	0.08556387
3	0x3d1e6570	0.038670957
4	0x3d9b6d10	0.075891614
5	0x3dcba63c	0.09943816
6	0xbdfc5e02	-0.12322618
7	0xbdf9d8cc	-0.12199554
8	0x3cfc0c90	0.030767709
9	0xbd34dff0	-0.044158876
10	0xbda22e62	-0.07919003
11	0xbd164f4c	-0.036696717
12	0x3db84744	0.08997968
13	0x3d2bbe64	0.041929618
14	0x3d33d6f4	0.043906167
15	0xbd8f980a	-0.07011421
16	0xbc5be1e0	-0.013420552
17	0x3d078e84	0.033094898
18	0xbd175720	-0.036948323
19	0xbc3d3910	-0.011549249
20	0xbd05b414	-0.03264244
21	0xbcb2c0e0	-0.021820486
22	0x3dc9ce88	0.09853846
23	0x3d88b43c	0.06675002
24	0xbd02622c	-0.031831905
25	0x3cd605f0	0.026125878
26	0x3de34620	0.1109736
27	0x3dd49154	0.10379282
28	0xbd34f96c	-0.04418318
29	0xbd32af7c	-0.043624386
30	0xbdf293a6	-0.11844568
31	0x3d5515e0	0.052022815
32	0x3a4e2200	0.0007863343
33	0xbd9a8504	-0.07544902
34	0x3b404080	0.002933532
35	0xbd1572c0	-0.036486387
36	0xba4a0c00	-0.00077074766
37	0xbdaaf3a4	-0.08347252
38	0x3dca879e	0.09889148
39	0x3d01843c	0.03162025
40	0x3d12f264	0.035875693
41	0xbdbba924	-0.091631204
42	0x3d6b7204	0.05748178
43	0xbd8e5686	-0.06950097
44	0x3d3baac4	0.04581715
45	0xbd91b71e	-0.07115005
46	0xbd5d0cfc	-0.05396746
47	0xbdc595fa	-0.096477464
48	0x3d289084	0.041153446
49	0x3dff16ae	0.12455498
50	0xbaa32100	-0.0012445748
51	0x3caf2448	0.021379605
52	0xbd380028	-0.044922024
53	0x3ca58d08	0.02020885
54	0xbc991128	-0.018684939
55	0x3d97206c	0.07379231
56	0xbde1672e	-0.11006008
57	0xbdc2caec	-0.095113605
58	0xbdbb12c4	-0.09134439
59	0x3d7505bc	0.05981992
60	0xbd977968	-0.07396203
61	0xbd983e48	-0.07433754
62	0xbad97200	-0.0016589761
63	0xbdbefe7e	-0.09325884
64	0x3cee5d70	0.029097289
65	0xbca5a567	-0.020220472
66	0x3d0f515f	0.03498971
67	0x3d3797fb	0.044822674
68	0xbdac95e0	-0.08427024
69	0xbcb79268	-0.02240868
70	0xbcddaba0	-0.027059376
71	0x3d4a06ee	0.049323015
72	0x3c09264a	0.008370945
73	0x3d8c7d76	0.06859867
74	0xbd6128ee	-0.054970674
75	0xbdd0808f	-0.101807706
76	0xbd530dd9	-0.051526878
77	0x3d15ca6d	0.03657
78	0x3ce66844	0.02812589
79	0xbdfc1d02	-0.1231022
80	0xbdd6105a	-0.104523376
81	0xbdaeef70	-0.08541763
82	0x3dce6157	0.1007716
83	0xbd854f48	-0.06509262
84	0x3dd0dd61	0.10198475
85	0x3dc9fc83	0.09862616
86	0xbbe67ac5	-0.0070336782
87	0x3db51715	0.08842293
88	0x3db2f72d	0.08738551
89	0x3cb8e48b	0.022569915
90	0xbd20e9a0	-0.039285302
91	0x3d9aa600	0.07551193
92	0xbce06b5e	-0.027394947
93	0xbdca5d91	-0.098811276
94	0x3c661118	0.014042161
95	0xbded0f0a	-0.11575134
96	0x3d8dd34c	0.06925067
97	0x3d84f885	0.06492714
98	0xbd9d751c	-0.076883525
99	0x3c88574a	0.016643185
100	0x3c17a130	0.009254739
101	0x3d9094e9	0.07059652
102	0xbd064209	-0.03277782
103	0x3df0e643	0.11762669
104	0x3d286b09	0.0411177
105	0x3d33b347	0.043872144
106	0x3c3e1e5a	0.011603916
107	0xbc9740f0	-0.018463582
108	0x3bcb6de8	0.00620817
109	0x3d579e34	0.05264111
110	0x3d109b9c	0.03530465
111	0x3da90177	0.082522325
112	0x3d8a8b9d	0.0676491
113	0x3d60eb5b	0.054911952
114	0xbdcb3f6e	-0.09924208
115	0x3dd36217	0.103214435
116	0xbdb9cfb7	-0.090728216
117	0x3dc845f0	0.097789645
118	0x3ddf5d5e	0.1090648
119	0xbd21fa3c	-0.039545283
120	0x3de2c5e3	0.110729
121	0x3cafd057	0.021461649
122	0xbcfd298e	-0.030903604
123	0xbd9c947f	-0.07645511
124	0xbd3b72b6	-0.045763694
125	0x3dfbb7ed	0.122909404
126	0xbded63c5	-0.11591295
127	0x3cd48ff6	0.025947552
128	0x3d8163d7	0.06317871
129	0xbd919205	-0.07107929
130	0x3da61e9f	0.08111309
131	0xbd846c08	-0.06465918
132	0xbd91af16	-0.07113473
133	0x3c92a4d9	0.017900871
134	0xbd19598c	-0.037438914
135	0xbdee8f6b	-0.116484486
136	0x3da7dc7d	0.08196352
137	0x3d9830dd	0.07431195
138	0x3d3b451d	0.04572021
139	0xbdae2446	-0.08503012
140	0x3d11315b	0.03544746
141	0x3dd6b0c6	0.104829356
142	0x3dec6094	0.11541858
143	0x3d83241e	0.06403373
144	0xbda42668	-0.08015138
145	0x3d349d91	0.04409558
146	0x3ce9a9b2	0.0285233
147	0xbb4199c0	-0.0029541105
148	0x3c7b3a8b	0.015333782
149	0x3ddbc625	0.107311524
150	0xbd931ae6	-0.07182865
151	0x3d6c6e92	0.057722636
152	0xbd3a9e8c	-0.04556136
153	0xbdbb99f4	-0.091602236
154	0x3d567d71	0.052365724
155	0x3d7c2a00	0.06156349
156	0x3cd6afb6	0.026206832
157	0x3c85adf6	0.016318303
158	0xbd2007b0	-0.03906983
159	0x3d8bffa9	0.06835873
160	0x3ded430f	0.11585056
161	0x3cd86d9e	0.026419457
162	0x3cda4bc2	0.026647452
163	0x3d9d0634	0.07667199
164	0x3aead580	0.0017916411
165	0xbd1f1bf7	-0.03884503
166	0x3dcf0f6c	0.10110363
167	0x3dd888db	0.10572978
168	0xbd204b1f	-0.03913414
169	0x3dcb06a2	0.099133745
170	0xbd879928	-0.06621009
171	0xbdaa2bed	-0.083091594
172	0x3d387dc7	0.045041826
173	0x3c5cea00	0.013483524
174	0x3d46a244	0.048494592
175	0x3d5bd86f	0.053673204
176	0x3dd7c338	0.10535282
177	0xbd3993cb	-0.045306962
178	0xbd91d58e	-0.071208104
179	0x3d7d7394	0.061877802
180	0x3d1a956a	0.03774015
181	0x3b9584e0	0.004562959
182	0xbdc232fe	-0.09482382
183	0xbd18f460	-0.03734243
184	0xbdcf1a97	-0.101124935
185	0xbbeb967a	-0.007189569
186	0xbdb91434	-0.090370566
187	0xbdf65067	-0.12027054
188	0x3def31d8	0.11679429
189	0x3e0468bd	0.1293058
190	0xbd2978a3	-0.041374814
191	0xbdce9416	-0.10086839
192	0x3dc0edc6	0.09420352
193	0x3d3814f0	0.044941843
194	0xbdc76ec6	-0.09737925
195	0xbdbc22e2	-0.09186341
196	0x3d50b418	0.050953
197	0xbdfb2b64	-0.122641355
198	0x3d644638	0.05573103
199	0x3d9e5bcc	0.077323526
200	0x3d67a070	0.05654949
201	0xbbdb1180	-0.006685436
202	0x3d2e9178	0.0426192
203	0xbc516b00	-0.012781858
204	0x3c818bb0	0.015813679
205	0x3cedc700	0.029025555
206	0x3d872e78	0.0660066
207	0x3dca6a20	0.09883523
208	0x3d96ee4c	0.0736967
209	0xbd6b8f68	-0.05750981
210	0xbd9069aa	-0.07051404
211	0xbd1a18c4	-0.037621275
212	0x3df6d9f8	0.12053293
213	0x3d4fb8a4	0.050713196
214	0x3dae036e	0.08496748
215	0xbd6dcec0	-0.0580585
216	0x3d902cba	0.07039781
217	0xbd85a082	-0.06524755
218	0xbd0c495c	-0.03424965
219	0x3d72c5f4	0.059270814
220	0xbdc31ecc	-0.095273584
221	0x3de77096	0.11300771
222	0xbcf41210	-0.02979377
223	0xbd04eef8	-0.03245446
224	0xbd9dcf90	-0.07705605
225	0x3d415f88	0.047210246
226	0x3da1fae2	0.0790918
227	0x3d1d480c	0.038398787
228	0xbdfb9d10	-0.12285817
229	0xbdf6f79a	-0.12058945
230	0xbcd0bef0	-0.025481671
231	0xbd1d0758	-0.03833708
232	0x3d6aa4d4	0.0572861
233	0xbdd795e8	-0.10526639
234	0xbbd6e960	-0.006558582
235	0x3df4d1cc	0.11954078
236	0x3d86f8f4	0.06590453
237	0x3dd3078a	0.10304172
238	0xbd998426	-0.074959084
239	0xbba7aea0	-0.0051172525
240	0xbdbf5a48	-0.09343392
241	0xbd2b4e0c	-0.04182248
242	0x3d9a7732	0.07542266
243	0xbd5a9b58	-0.053370804
244	0xbd5f6fdc	-0.054550037
245	0xbda53902	-0.08067514
246	0x3dd6f57e	0.10496043
247	0xbdc0b880	-0.094101906
248	0xbd94d2c4	-0.07266763
249	0xbd8a5188	-0.06753832
250	0x3d0117ac	0.031516716
251	0xbd89c5ba	-0.067271665
252	0xbd5a5f04	-0.05331327
253	0x3dac63ca	0.08417471
254	0xbd987488	-0.074441016
255	0xbcdca708	-0.026935115

shared.2.bias f4 [64]
0	0xbda0fc8e	-0.07860671
1	0x3d395d9a	0.04525528
2	0x3d4af858	0.049553245
3	0xbd9916a2	-0.0747502
4	0x3d778154	0.06042607
5	0x3d9de392	0.07709421
6	0x3d6072c4	0.05479695
7	0x3db569b3	0.08858051
8	0x3d2f17f3	0.04274745
9	0xbd0df5af	-0.03465813
10	0x3d3a791e	0.045525663
11	0x3dc66474	0.09687129
12	0x3d559763	0.052146327
13	0x3d1fc546	0.039006494
14	0x3dbc808b	0.09204205
15	0xbd860ba9	-0.06545193
16	0xbc06daa0	-0.008230835
17	0xbdc655d5	-0.0968434
18	0x3d9cea1b	0.076618396
19	0x3d2e2b20	0.042521596
20	0x3d552bb1	0.05204362
21	0x3ddb17c4	0.10697892
22	0xbdcb1d35	-0.0991768
23	0x3d35821d	0.04431354
24	0xbcc4e9be	-0.024037238
25	0x3da78813	0.08180251
26	0x3d902a81	0.07039357
27	0x3da5d0aa	0.0809644
28	0x3a2fc863	0.000670558
29	0x3de0a211	0.10968412
30	0x3dc81892	0.097703114
31	0x3cb64043	0.02224744
32	0xbda92a34	-0.08260003
33	0xbc4626e0	-0.012094229
34	0x3bfbcc74	0.007684285
35	0x3d658e4f	0.05604392
36	0xbd9b090c	-0.07570085
37	0xbacf58ef	-0.0015819351
38	0xb9e84fbe	-0.000443099
39	0x3df257f8	0.11833185
40	0xbd1e5280	-0.038652897
41	0xbdd564cc	-0.10419616
42	0xbcfb8668	-0.030703738
43	0xbdc33d05	-0.09533123
44	0xbdd6f4a4	-0.1049588
45	0xbdda4872	-0.10658349
46	0x3d1ece7e	0.038771145
47	0xbd07efe4	-0.033187762
48	0x3dbbc5ad	0.09168563
49	0x3d754cf8	0.059887856
50	0x3c9a6213	0.018845594
51	0xbd3604b4	-0.04443808
52	0xbd1f9ab4	-0.038965896
53	0x3d3c4704	0.045966163
54	0xbd9a3fd6	-0.07531707
55	0x3d7e1dcf	0.062040146
56	0xbd23c820	-0.039985776
57	0xbd896326	-0.06708364
58	0xbd8d1c50	-0.06890166
59	0x3cd4b514	0.025965251
60	0xbd0c6b0c	-0.034281775
61	0xbccc02d9	-0.024903702
62	0x3d97718b	0.073947035
63	0x3dee9b92	0.116507664

actor.0.weight f4 [5, 64]
0	0x3dda78f6	0.10667603
1	0xbd0843cb	-0.033267777
2	0xbdf57e08	-0.11986929
3	0xbc41b5f0	-0.011823162
4	0x3cfaa508	0.030596271
5	0xbdb7ff2d	-0.08984218
6	0xbd818f49	-0.063261576
7	0xbde32fb8	-0.11093086
8	0x3d4ddec9	0.050261293
9	0xbdcf55e7	-0.101238064
10	0x3cd375cf	0.025813011
11	0xb9dfe850	-0.0004270696
12	0x3d92733f	0.07150888
13	0x3df526ae	0.11970268
14	0xbd48d2f2	-0.049029298
15	0x3dd67ae5	0.10472659
16	0x3db558d2	0.08854832
17	0xbd71da6a	-0.059046187
18	0xbdad6551	-0.0846659
19	0x3c64fb4a	0.013975928
20	0x3de2bade	0.11070798
21	0x3d038de9	0.032117758
22	0xbd9c32ae	-0.07626854
23	0xbdd3bcd7	-0.10338753
24	0x3de91450	0.113808274
25	0x3d37d15f	0.044877406
26	0x3de32145	0.1109033
27	0x3db937f6	0.09043877
28	0xbe007794	-0.12545615
29	0xbcbe4398	-0.02322559
30	0xbd99f199	-0.07516784
31	0xbd8b1329	-0.06790764
32	0xbc823a30	-0.015896887
33	0xbdc61fca	-0.09674032
34	0xbd3337a8	-0.04375425
35	0xbd9f033c	-0.07764289
36	0xbd650f34	-0.055922702
37	0x3d7e51c6	0.062089704
38	0x3cdcb824	0.026943274
39	0xbdcd6685	-0.1002932
40	0x3df4bfbe	0.119506344
41	0x3cc78a50	0.024357945
42	0xbca2a460	-0.01985377
43	0x3bce68f7	0.006299134
44	0x3c929928	0.017895296
45	0x3de4cd7d	0.11172006
46	0x3d5129a0	0.051065087
47	0x3d580b64	0.052745238
48	0x3da93890	0.082627416
49	0xbd9b8aae	-0.075948104
50	0xbdac3ad7	-0.0840966
51	0xbd11088d	-0.035408545
52	0xbdc961b1	-0.09833086
53	0x3c95aa04	0.018269546
54	0x3c4dda7a	0.012564296
55	0xbdac327a	-0.08408065
56	0x3d775296	0.060381494
57	0xbdd4974a	-0.103804186
58	0x3cb9b608	0.022669807
59	0x3deca9a6	0.11555795
60	0x3da4f066	0.08053665
61	0xbdc061a9	-0.09393627
62	0xbd6a6f12	-0.05723483
63	0xbda05253	-0.07828202
64	0x3dc57676	0.09641735
65	0x3d986a77	0.074421816
66	0xbd09d37e	-0.03364896
67	0x3db5e564	0.088816434
68	0x3d1b56c6	0.03792455
69	0x3d4a8394	0.04944189
70	0x3db13768	0.08653146
71	0xbcbc6602	-0.02299786
72	0xbcfedd08	-0.031111255
73	0x3d1b3469	0.03789178
74	0x3dd23487	0.10263925
75	0x3dbfac75	0.093590654
76	0x3cd5d2be	0.026101466
77	0xbdca3f92	-0.09875406
78	0xbdd40bc5	-0.10353807
79	0xbd384d29	-0.04499546
80	0xbcc0a780	-0.02351737
81	0x3d72453b	0.059148055
82	0x3bdfea1a	0.006833327
83	0xbd69c31a	-0.05707083
84	0x3d601b8d	0.054713774
85	0x3db9c7c8	0.090713084
86	0xbd551fd9	-0.052032325
87	0xbd58ea9d	-0.05295812
88	0xbd743f6c	-0.059630796
89	0x3c3dc6f9	0.011583083
90	0x3cbaf208	0.022820488
91	0x3d1b7cbf	0.037960764
92	0x3d81e257	0.06341999
93	0xbde1fa3d	-0.11034057
94	0x3d12f194	0.035874918
95	0xbd11db65	-0.03560962
96	0xbdbf4922	-0.09340121
97	0xbd289ba8	-0.04116407
98	0xbd9fb8ad	-0.07798896
99	0xbd9f348f	-0.07773697
100	0xbde449a4	-0.11146858
101	0xbd536d0c	-0.051617667
102	0x3dd1d57d	0.10245798
103	0xbb1adfba	-0.0023631887
104	0x3abd7280	0.0014453679
105	0x3c01e6a0	0.00792852
106	0x3b8a8d20	0.004228249
107	0xbca58206	-0.020203602
108	0x3dc5df6a	0.096617535
109	0x3ca4fd03	0.020140177
110	0xbc45e276	-0.012077918
111	0xbdf805d0	-0.12110484
112	0x3ddd6085	0.10809425
113	0x3dff49f2	0.12465276
114	0xbdd26906	-0.10273938
115	0x3dc19a40	0.09453249
116	0xbd246f3e	-0.04014515
117	0xbd3fd02e	-0.046829395
118	0xbd63782c	-0.055534527
119	0x3dc6ffc0	0.09716749
120	0xbddc5e58	-0.10760182
121	0x3dd1c0f6	0.102418825
122	0x3c2ab440	0.0104189515
123	0x3a4b2828	0.0007749819
124	0x3dd73074	0.105072886
125	0x3debc68e	0.11512481
126	0x3dccecd1	0.10006107
127	0xb9ab2966	-0.00032646506
128	0xbdd15f90	-0.10223305
129	0x3c6181b4	0.013763834
130	0x3c6cb48e	0.0144473445
131	0x3dc93f48	0.09826523
132	0xbc8bb56d	-0.017054284
133	0xbd79213c	-0.06082271
134	0xbdcb971c	-0.09940931
135	0xbde4ee80	-0.11178303
136	0xbdddfd1f	-0.10839295
137	0xbde53597	-0.11191862
138	0xbda7f6b8	-0.08201355
139	0xbdc238ad	-0.09483466
140	0x3d663cff	0.056210514
141	0x3d223a92	0.03960664
142	0xbc028207	-0.007965571
143	0xbda6e718	-0.081495464
144	0x3df09fa4	0.11749199
145	0xbde40c06	-0.11135106
146	0x3d560054	0.052246407
147	0x3db28527	0.08716803
148	0xbcc41fb6	-0.023940902
149	0xbd773329	-0.060351525
150	0x3dd55919	0.10417385
151	0xbdab488f	-0.08363449
152	0xbddfc3a2	-0.10925986
153	0x3d80ab94	0.06282726
154	0x3decc131	0.11560286
155	0x3d4e8ee6	0.050429247
156	0x3d445e1b	0.04794131
157	0xbd0cd78f	-0.03438526
158	0xbd3bb39e	-0.045825593
159	0x3dcd740f	0.10031902
160	0xbda13f90	-0.07873452
161	0x3dad16f0	0.084516406
162	0x3db81466	0.08988266
163	0xbde38228	-0.1110881
164	0x3d9ac91a	0.07557888
165	0x3d19ca96	0.037546717
166	0xbdaf3d2d	-0.0855659
167	0x3dd6a67b	0.104809724
168	0xbca88018	-0.020568892
169	0x3cab1490	0.020883828
170	0xbcf88480	-0.030336618
171	0xbd3036bb	-0.043020945
172	0xbdf0aaf8	-0.1175136
173	0x3dfcd2ca	0.12344892
174	0x3dc20378	0.09473318
175	0xbde093bc	-0.10965678
176	0xbd1d4df4	-0.03840442
177	0x3deb7414	0.114967495
178	0x3d796549	0.06088761
179	0xbcdc5bc1	-0.02689922
180	0xbd0bcd03	-0.03413106
181	0xbdd448ba	-0.10365434
182	0xbd74bd5c	-0.0597509
183	0x3d1f8944	0.038949266
184	0x3df2fef7	0.11865037
185	0xbda2e18a	-0.079531744
186	0x3cc262b0	0.023728698
187	0xbd42b10c	-0.047532126
188	0xbdc9afd6	-0.09847991
189	0xbd8de45d	-0.069283225
190	0xbdefe0f5	-0.11712829
191	0x3b87f37e	0.0041488996
192	0xbd4ad390	-0.049518168
193	0x3deded0a	0.11617477
194	0x3c647641	0.01394421
195	0xbd4788d0	-0.04871446
196	0x3dc0f4c8	0.09421688
197	0xbd6cab27	-0.05778041
198	0xbd4f8ff3	-0.05067439
199	0xbd0623f3	-0.032749128
200	0x3cd468a3	0.0259288
201	0x3dde6ceb	0.10860618
202	0x3de4a3dd	0.11164067
203	0x3dbd37ca	0.092391565
204	0xbab8dfa2	-0.0014104734
205	0xbd0f822e	-0.03503626
206	0x3d4e29ac	0.05033271
207	0xbdd925f5	-0.10602943
208	0x3db8f970	0.090319514
209	0x3cb203d9	0.02173035
210	0x3d956d45	0.07296232
211	0x3deeb0fb	0.1165485
212	0xbdeb629c	-0.114934176
213	0x3d96e1fb	0.07367321
214	0x3df0c1f9	0.11755747
215	0xbc135bb1	-0.008994029
216	0xbd2281e2	-0.039674647
217	0x3d8d963d	0.06913421
218	0xbd866113	-0.06561484
219	0x3de8fa6c	0.11375889
220	0x3d89f657	0.06736439
221	0x3d1d63e9	0.03842536
222	0x3d3c7e05	0.04601862
223	0x3d341379	0.043963883
224	0xbc465bc0	-0.012106836
225	0xbc19ec20	-0.0093946755
226	0x3db84a21	0.08998514
227	0x3dc1b155	0.094576515
228	0x3dbf80fc	0.09350774
229	0x3d44160d	0.04787259
230	0xbd645bda	-0.05575166
231	0xbc92b360	-0.017907798
232	0xbd3571d4	-0.044298008
233	0xbde2cfe4	-0.11074808
234	0x3d5d589c	0.054039583
235	0xbdcbac33	-0.09944954
236	0x3d9d7d3e	0.07689904
237	0xbdc8b936	-0.09800951
238	0xbcea28a3	-0.02858383
239	0xbd995980	-0.07487774
240	0x3d7599ac	0.059961006
241	0x3dd20938	0.102556646
242	0x3cc30a8d	0.023808742
243	0xbdec3a6c	-0.115345806
244	0xbd6ce864	-0.057838812
245	0xbca6066d	-0.020266736
246	0x3df01e59	0.11724538
247	0x3d1f1896	0.038841806
248	0xbd8d55ea	-0.069011524
249	0xbdc99c7a	-0.09844299
250	0x3cafeb00	0.021474361
251	0xbd25339b	-0.040332418
252	0x3d0fd068	0.03511086
253	0xbd82d702	-0.06388666
254	0xbdd30901	-0.10304452
255	0x3dced23b	0.10098692

actor.0.bias f4 [5]
0	0x3dd4c3c2	0.103889
1	0xbdc8ef1f	-0.09811234
2	0x3db8fa70	0.09032142
3	0x3d8d0072	0.068848506
4	0x3da8b0d7	0.082368545

critic.0.weight f4 [1, 64]
0	0xbcb65bc0	-0.022260547
1	0xbd43208d	-0.047638465
2	0xbd8460b3	-0.064637564
3	0x3d11483c	0.03546928
4	0xbdbe868e	-0.09303008
5	0x3dcb31bd	0.09921596
6	0x3cfafa04	0.030636795
7	0x3de851ee	0.11343752
8	0xbd83f6e5	-0.06443576
9	0xbd9fb1d0	-0.07797587
10	0xbbceb87f	-0.0063086147
11	0x3dc878b3	0.097886465
12	0xbdcf4b43	-0.10121777
13	0x3c1a2c60	0.009409994
14	0xbd3a25f4	-0.04544635
15	0xbdb0d88d	-0.08635054
16	0x3db9442a	0.090462044
17	0x3db1d8a9	0.08683903
18	0x3ca6d706	0.020366203
19	0x3dbc854c	0.09205112
20	0x3c93661f	0.017993031
21	0xbd81e793	-0.063429974
22	0x3da07b3b	0.07836004
23	0x3d0b4986	0.034005664
24	0x3defbcf1	0.117059596
25	0x3d1561d3	0.036470246
26	0x3d917817	0.071029834
27	0x3d3e4bdb	0.04645906
28	0xbd9daed6	-0.07699363
29	0x3d152b45	0.03641822
30	0x3d854146	0.065065905
31	0x3d03009c	0.031983003
32	0x3da70784	0.0815573
33	0xbc507aa0	-0.012724549
34	0xbd026535	-0.0318348
35	0xbdce6025	-0.10076932
36	0xb9c5a6db	-0.00037699085
37	0xbda3c413	-0.079963826
38	0x3dc304fa	0.095224336
39	0xbd747b38	-0.059687823
40	0xbddf2890	-0.108964086
41	0xbdb16eb4	-0.08663693
42	0xbd3669a0	-0.044534326
43	0xbd8c4554	-0.06849161
44	0x3d8e1aee	0.0693873
45	0x3d580e2a	0.052747883
46	0xbd041b68	-0.0322527
47	0xbd6af820	-0.057365537
48	0x3d452611	0.048132006
49	0x3ddce6f8	0.10786241
50	0xbdd43065	-0.10360793
51	0xbda855b4	-0.082194716
52	0x3df50bf8	0.119651735
53	0x3db67a6e	0.0891007
54	0x3c8ee904	0.017445095
55	0xbd6709e4	-0.056405917
56	0x3a961eb4	0.0011453242
57	0x3ca309e8	0.019902185
58	0xbde0ebbc	-0.10982463
59	0xbd979550	-0.07401526
60	0x3da8a9e2	0.082355276
61	0x3dac3f22	0.08410479
62	0xbc9bf729	-0.019038754
63	0x3d491352	0.04909069

exp_avg f4 [64, 10]
0	0x3970d07b	0.00022965849
1	0xb88115f4	-6.1552884e-05
2	0x39d05d8b	0.00039742547
3	0x39b1188c	0.0003377836
4	0x3927a27b	0.0001598689
5	0x3a0cfa49	0.00053778716
6	0x38988c05	7.2740055e-05
7	0x380f593b	3.417696e-05
8	0xb7d3b8d6	-2.5239231e-05
9	0x39a8a56f	0.00032166715
10	0xb7862767	-1.5992393e-05
11	0xb613a505	-2.200076e-06
12	0xb5810600	-9.612995e-07
13	0xb7876481	-1.6140055e-05
14	0xb6a36b6f	-4.8702855e-06
15	0xb760db10	-1.3402445e-05
16	0xb72c3798	-1.0264943e-05
17	0xb54f11de	-7.713951e-07
18	0xb6d448d4	-6.3265707e-06
19	0xb7264c20	-9.912095e-06
20	0x3aee7076	0.0018191475
21	0x3ad33d11	0.0016116222
22	0x3a2ae9a9	0.00065198034
23	0x3a2f9581	0.0006697998
24	0x3a1ed86a	0.000605947
25	0x3ab317d0	0.0013663713
26	0x3a4b1658	0.0007747165
27	0x3ac7ee5e	0.0015253534
28	0x3abfa18c	0.0014620288
29	0x3a73f7bb	0.0009306629
30	0xb8c5b307	-9.4270385e-05
31	0x394836b7	0.00019093869
32	0xb8f65dd4	-0.00011747671
33	0x37c7ff3b	2.38415e-05
34	0xb955a0ea	-0.00020373208
35	0x37ecd1f8	2.8231167e-05
36	0x3900ba7e	0.00012276505
37	0x39b7da81	0.00035067278
38	0x396644b5	0.00021960105
39	0x38de9af8	0.0001061465
40	0xb9cbcea8	-0.00038873148
41	0xba30da02	-0.0006746353
42	0x39a78429	0.0003195119
43	0x381684a5	3.588632e-05
44	0x3a02b905	0.00049866765
45	0xb9b3e4b0	-0.00034311926
46	0xb9bc7057	-0.00035941854
47	0xba00b2ef	-0.00049094757
48	0x366b0520	3.5020712e-06
49	0x38d815ad	0.0001030372
50	0x39ba5c42	0.00035545422
51	0x38890828	6.534188e-05
52	0x39f436f2	0.00046580244
53	0x3a4109d8	0.00073638326
54	0x3679e452	3.7236791e-06
55	0x391cd4eb	0.00014956637
56	0x39ff186e	0.00048655592
57	0x391fb6c8	0.00015231513
58	0x396bdb33	0.00022493005
59	0x3a1f4b6b	0.0006076607
60	0x3a05f52e	0.0005110082
61	0xb9b5948b	-0.00034633683
62	0x380f7f28	3.421228e-05
63	0xb8c2a3fe	-9.281187e-05
64	0x39a42f11	0.00031315585
65	0x391c19c2	0.00014886915
66	0x386672a1	5.494303e-05
67	0x38f5948c	0.000117101794
68	0x39bb0708	0.00035672658
69	0xb9fa1858	-0.00047701853
70	0xb975cd26	-0.00023441445
71	0x38260027	3.9577626e-05
72	0xb8b00431	-8.393115e-05
73	0x38c133ec	9.212628e-05
74	0x3914c033	0.0001418598
75	0xb8c3049e	-9.2991846e-05
76	0xb8de3cdb	-0.0001059712
77	0xb8e4d8b4	-0.00010912251
78	0xb69d7252	-4.6922733e-06
79	0xb82c6565	-4.1102427e-05
80	0x398e7f5d	0.00027179244
81	0x39a8c6e0	0.0003219163
82	0x3911d3c7	0.00013907171
83	0x38a9f61c	8.1043894e-05
84	0x36ea6f41	6.986695e-06
85	0x393604ce	0.00017358662
86	0x389d1a7d	7.491277e-05
87	0x390868d7	0.00013009027
88	0x3974342e	0.00023289092
89	0x397d0710	0.00024130591
90	0x3632ecc6	2.6661887e-06
91	0x3822e489	3.883665e-05
92	0x384cfcf7	4.8872982e-05
93	0x3859a198	5.1887328e-05
94	0x3621e9bc	2.412692e-06
95	0x37930799	1.7527303e-05
96	0xb5ced3b5	-1.5409811e-06
97	0x3787303d	1.6115717e-05
98	0x377b7346	1.4987605e-05
99	0x381426eb	3.5322195e-05
100	0xba09ccf2	-0.00052566745
101	0xba0c5b3e	-0.00053541723
102	0xb6b72e7a	-5.4592356e-06
103	0x38f7168a	0.00011782076
104	0xb9281d8c	-0.00016032736
105	0xb94ab39e	-0.00019331134
106	0xb9bb67f8	-0.00035744882
107	0xb97d6171	-0.0002416426
108	0x3980d56b	0.0002457307
109	0x38a6d788	7.955643e-05
110	0x3a134b48	0.0005618823
111	0x39cb91df	0.0003882786
112	0x3a2b5ef4	0.00065372814
113	0x3966157e	0.00021942516
114	0x3a3b2d14	0.0007140201
115	0x3991f779	0.00027840937
116	0x3a3f9384	0.00073080533
117	0x3a0a2ab2	0.00052706443
118	0x3902af7b	0.00012463138
119	0x39c62b27	0.00037797654
120	0xb94e7739	-0.00019690105
121	0xb9096c9e	-0.00013105801
122	0xb89c1efa	-7.4444295e-05
123	0xb84d5a52	-4.8959926e-05
124	0xb93cb50f	-0.00017996527
125	0xb8a37ea4	-7.796034e-05
126	0xb91f207f	-0.00015175527
127	0xb86fe187	-5.719208e-05
128	0x3820c7fc	3.8333223e-05
129	0xb917c552	-0.0001447399
130	0x39db8f03	0.00041877487
131	0x3a9e4c49	0.0012077178
132	0xb9a25c4a	-0.0003096781
133	0xb9dc882a	-0.0004206312
134	0xb9971d4f	-0.000288228
135	0x39b5163e	0.00034539582
136	0x395e841f	0.00021220789
137	0x3a857841	0.0010182933
138	0x3a09f31f	0.0005262363
139	0x37bacf9d	2.2269605e-05
140	0xb937f4a8	-0.00017543382
141	0xba8cc715	-0.0010740483
142	0x3a06bee3	0.00051401387
143	0x38cb5642	9.695861e-05
144	0x392e800b	0.00016641633
145	0x3904bdc2	0.00012659191
146	0xb94c23e2	-0.00019468323
147	0xba511d76	-0.00079771073
148	0xba00ebf3	-0.00049179717
149	0x37364502	1.08641125e-05
150	0x376c5b3e	1.408794e-05
151	0x3813819e	3.5168247e-05
152	0xb8e0bcfa	-0.00010716352
153	0xb8374d16	-4.3702392e-05
154	0x37022772	7.757788e-06
155	0x38ec430a	0.00011265844
156	0x37b6a46d	2.1772657e-05
157	0xb7b1b09f	-2.118229e-05
158	0xb898728d	-7.2692616e-05
159	0x38e1843a	0.00010753465
160	0x00000000	0.0
161	0x00000000	0.0
162	0x00000000	0.0
163	0x00000000	0.0
164	0x00000000	0.0
165	0x00000000	0.0
166	0x00000000	0.0
167	0x00000000	0.0
168	0x00000000	0.0
169	0x00000000	0.0
170	0x3a2aca71	0.00065151515
171	0x39be6c4e	0.00036320317
172	0x38fd1547	0.00012067943
173	0x39930499	0.0002804145
174	0x39150dd6	0.00014214902
175	0x38ef323d	0.00011405766
176	0x39c56b2c	0.00037654617
177	0x39c8eeab	0.00038324794
178	0x3a2e9c7b	0.00066608906
179	0x39fffb1c	0.0004882448
180	0xb8268369	-3.969987e-05
181	0x39b94077	0.0003533398
182	0xb943cb38	-0.00018672354
183	0x39760f03	0.0002346598
184	0xba14b6ae	-0.00056729733
185	0xb8d5ffcc	-0.00010204277
186	0x389c2304	7.445182e-05
187	0x38b82f27	8.7825865e-05
188	0xb90ab436	-0.0001322784
189	0x391297ca	0.00013980191
190	0x00000000	0.0
191	0x00000000	0.0
192	0x00000000	0.0
193	0x00000000	0.0
194	0x00000000	0.0
195	0x00000000	0.0
196	0x00000000	0.0
197	0x00000000	0.0
198	0x00000000	0.0
199	0x00000000	0.0
200	0x37a8c141	2.0117152e-05
201	0x37c6e8c9	2.3711838e-05
202	0x38b80cd2	8.776192e-05
203	0x375da436	1.321086e-05
204	0x3729ee18	1.01286205e-05
205	0x380a4b2a	3.2971766e-05
206	0x37eb04af	2.8016364e-05
207	0x3883cf59	6.285188e-05
208	0x38243ecc	3.915913e-05
209	0x38d012ad	9.9216915e-05
210	0xba819b41	-0.0009888188
211	0xba6ceaea	-0.00090376905
212	0xb96f444c	-0.00022818259
213	0xba031442	-0.0005000272
214	0x3870c72c	5.7405952e-05
215	0xba0e4d19	-0.00054283586
216	0xb93bf398	-0.00017924455
217	0xba2d2580	-0.0006605014
218	0xba32086a	-0.0006791415
219	0xb9f13e15	-0.00046013357
220	0xb9df69dc	-0.00042612746
221	0xba312ff8	-0.0006759162
222	0xb99d08a5	-0.00029951814
223	0xb9f57f0e	-0.00046824705
224	0xb908cdc1	-0.0001304662
225	0xba0336ed	-0.0005005438
226	0xb98cedc9	-0.00026880045
227	0xba08b3f2	-0.0005214802
228	0xb8d4355f	-0.00010118889
229	0xb9dc3bd2	-0.0004200624
230	0xb87078d3	-5.7332985e-05
231	0xb747e2fa	-1.1914171e-05
232	0xb76af1c2	-1.40037755e-05
233	0xb7c9e5da	-2.40681e-05
234	0xb89087c6	-6.891745e-05
235	0xb8c7f0e2	-9.5339274e-05
236	0xb80a363a	-3.2952266e-05
237	0x37722933	1.44339165e-05
238	0xb8b983f3	-8.846065e-05
239	0xb8e894df	-0.000110903515
240	0x38246d19	3.9202252e-05
241	0xb8fdc275	-0.000121002005
242	0x389b1c44	7.396241e-05
243	0x388a3885	6.5908804e-05
244	0xb7d864fe	-2.5796235e-05
245	0x3779608f	1.4864038e-05
246	0xb819d64f	-3.6677633e-05
247	0xb8e8fc87	-0.00011109659
248	0xb9467fc2	-0.00018930345
249	0x3836456c	4.3456836e-05
250	0x35fdac78	1.8900164e-06
251	0x37c98516	2.402304e-05
252	0x36a517b5	4.920143e-06
253	0x368db7d3	4.2235274e-06
254	0x37a0da8a	1.9175252e-05
255	0x37c188fb	2.307118e-05

exp_avg_sq f4 [64, 10]
0	0x32578af6	1.2546243e-08
1	0x31db0b97	6.3750565e-09
2	0x3247495c	1.16000045e-08
3	0x32979890	1.7648091e-08
4	0x3231c341	1.0347152e-08
5	0x32d2d915	2.4545935e-08
6	0x32332633	1.0427857e-08
7	0x328804a6	1.5834598e-08
8	0x3260380a	1.3051258e-08
9	0x31f3e4a8	7.098226e-09
10	0x2f036105	1.1948849e-10
11	0x2c245b10	2.3356352e-12
12	0x2afbcdaa	4.4729265e-13
13	0x2f0158d6	1.1764043e-10
14	0x2d2f3b1f	9.960726e-12
15	0x2ebcf695	8.593052e-11
16	0x2e4605db	4.502519e-11
17	0x2abb5778	3.3278567e-13
18	0x2d9319a6	1.6723355e-11
19	0x2e46c4c6	4.5194758e-11
20	0x33eec6d6	1.1118907e-07
21	0x33a526dd	7.6904804e-08
22	0x32487e65	1.1670271e-08
23	0x32d5414b	2.4826155e-08
24	0x32a0cab4	1.871863e-08
25	0x3381201c	6.012871e-08
26	0x3321296e	3.7523414e-08
27	0x33730674	5.6583715e-08
28	0x338fd5ca	6.6978444e-08
29	0x330021ed	2.9833178e-08
30	0x320e7632	8.292362e-09
31	0x32a0eb96	1.8733584e-08
32	0x3237d1ea	1.0699731e-08
33	0x323c4f11	1.0961018e-08
34	0x325322db	1.2289742e-08
35	0x32801665	1.4911345e-08
36	0x32c8e838	2.3388665e-08
37	0x3221e206	9.422825e-09
38	0x3282a8ac	1.5210695e-08
39	0x32d43625	2.470467e-08
40	0x33372b0d	4.2647162e-08
41	0x330cf630	3.2820196e-08
42	0x330d87e9	3.295273e-08
43	0x32b22088	2.073672e-08
44	0x3267f583	1.3501793e-08
45	0x3348851e	4.6687198e-08
46	0x327175a9	1.4054799e-08
47	0x3292f5d1	1.7108421e-08
48	0x31a0df44	4.6819952e-09
49	0x32e5c4f2	2.6748669e-08
50	0x32975ade	1.7620035e-08
51	0x32ba5fef	2.1696875e-08
52	0x320fb51b	8.364874e-09
53	0x3306d0dd	3.1389266e-08
54	0x31740d60	3.5514276e-09
55	0x32c4f67d	2.2929493e-08
56	0x32961aef	1.7474546e-08
57	0x329376cc	1.7167075e-08
58	0x3218d5f1	8.896209e-09
59	0x324c87d0	1.1905243e-08
60	0x33046a7a	3.0830485e-08
61	0x32c2cef1	2.2678678e-08
62	0x32399469	1.0802162e-08
63	0x32dc85d5	2.567223e-08
64	0x32ed34d3	2.7614453e-08
65	0x32bd4c54	2.2037206e-08
66	0x3384c3d7	6.182352e-08
67	0x3280b8a7	1.4985131e-08
68	0x3306dae9	3.1398404e-08
69	0x333cccf9	4.3958583e-08
70	0x323e194c	1.1065207e-08
71	0x31eada9b	6.835149e-09
72	0x31cbca8e	5.9311054e-09
73	0x31edc7b4	6.9203114e-09
74	0x322ddaad	1.01196465e-08
75	0x327820a8	1.4442925e-08
76	0x318d8f49	4.1199297e-09
77	0x316e88da	3.471135e-09
78	0x3171802c	3.5142973e-09
79	0x322d7932	1.0097482e-08
80	0x31bd6687	5.51228e-09
81	0x31d71e56	6.2607723e-09
82	0x3130b3a2	2.571348e-09
83	0x3198cff1	4.4474224e-09
84	0x2ffa4bd0	4.5528603e-10
85	0x310b3af2	2.0260669e-09
86	0x3188af5e	3.978058e-09
87	0x308d5cfe	1.028553e-09
88	0x31fb5c6e	7.3155695e-09
89	0x3143e1fb	2.850469e-09
90	0x2bb88076	1.3109641e-12
91	0x2f14c3ec	1.3530127e-10
92	0x2f57142c	1.9561303e-10
93	0x2f4c9f2e	1.8610244e-10
94	0x2d1265a9	8.321712e-12
95	0x2dbeb5db	2.168126e-11
96	0x2c594b4e	3.0879357e-12
97	0x2d87a7a9	1.542218e-11
98	0x2da96883	1.9259488e-11
99	0x2edb125d	9.962229e-11
100	0x33095cbe	3.1982147e-08
101	0x32b92966	2.155566e-08
102	0x323d7d40	1.10297265e-08
103	0x3253d8b7	1.2331092e-08
104	0x327b2d4d	1.4620423e-08
105	0x32cbb7ee	2.3715952e-08
106	0x327878a7	1.4462933e-08
107	0x31c54459	5.741225e-09
108	0x32834927	1.5283673e-08
109	0x327834c5	1.4447498e-08
110	0x32cf4b63	2.4132254e-08
111	0x32989ed9	1.7767364e-08
112	0x323f8f53	1.1150251e-08
113	0x329b6a0f	1.8092605e-08
114	0x328da8bf	1.6491297e-08
115	0x32fd070b	2.945628e-08
116	0x32a48ddd	1.9156625e-08
117	0x33047a09	3.0844635e-08
118	0x32cddeec	2.3966514e-08
119	0x324793ee	1.161696e-08
120	0x309da5d8	1.1470389e-09
121	0x3099a20a	1.1178269e-09
122	0x2f9bcd0a	2.8340025e-10
123	0x3086edc7	9.817364e-10
124	0x30a144ea	1.1733878e-09
125	0x2fb957e3	3.371375e-10
126	0x302af4e8	6.219367e-10
127	0x309fbb5c	1.1622023e-09
128	0x2f01569c	1.1763251e-10
129	0x30c7158e	1.4485282e-09
130	0x3366ab05	5.370659e-08
131	0x337d30ff	5.8950715e-08
132	0x32ba5c58	2.1695243e-08
133	0x333a1f91	4.333521e-08
134	0x328c081e	1.6301836e-08
135	0x33a18294	7.520899e-08
136	0x321cab6a	9.11937e-09
137	0x3313ab12	3.4381692e-08
138	0x32d5938c	2.486356e-08
139	0x33089c36	3.180704e-08
140	0x329c0860	1.8164599e-08
141	0x3377c63a	5.7689455e-08
142	0x328f1c34	1.6660216e-08
143	0x32f8f8c3	2.8984124e-08
144	0x31c1fe60	5.6459584e-09
145	0x334039a5	4.475591e-08
146	0x330df0d9	3.304817e-08
147	0x330657ac	3.1279043e-08
148	0x32f368fd	2.8336666e-08
149	0x3304d5b9	3.0928025e-08
150	0x2f067efa	1.223234e-10
151	0x2f33707b	1.6319916e-10
152	0x30a2af1f	1.1836824e-09
153	0x2ff8df4c	4.52696e-10
154	0x2ff761a0	4.4998405e-10
155	0x30c7d8fd	1.4540827e-09
156	0x30f1b0ca	1.7585304e-09
157	0x3000f667	4.691629e-10
158	0x2ff73cea	4.497232e-10
159	0x30e2106a	1.6448329e-09
160	0x00000000	0.0
161	0x00000000	0.0
162	0x00000000	0.0
163	0x00000000	0.0
164	0x00000000	0.0
165	0x00000000	0.0
166	0x00000000	0.0
167	0x00000000	0.0
168	0x00000000	0.0
169	0x00000000	0.0
170	0x336f6a3d	5.5743147e-08
171	0x32ebba40	2.7442297e-08
172	0x3287299c	1.573499e-08
173	0x32b2a7b0	2.0798183e-08
174	0x32f9e986	2.909361e-08
175	0x3350d9c6	4.8626838e-08
176	0x32a01616	1.8636495e-08
177	0x33056297	3.1056143e-08
178	0x330355d0	3.057886e-08
179	0x32fd7dc3	2.9510266e-08
180	0x3284d927	1.5465572e-08
181	0x331a0e9b	3.5869203e-08
182	0x31fc9974	7.351611e-09
183	0x328420fe	1.5381826e-08
184	0x3274d29d	1.4250557e-08
185	0x333d4f14	4.4076913e-08
186	0x32e91e28	2.7138483e-08
187	0x3218f78c	8.90385e-09
188	0x327dd7df	1.4775622e-08
189	0x32d06453	2.426001e-08
190	0x00000000	0.0
191	0x00000000	0.0
192	0x00000000	0.0
193	0x00000000	0.0
194	0x00000000	0.0
195	0x00000000	0.0
196	0x00000000	0.0
197	0x00000000	0.0
198	0x00000000	0.0
199	0x00000000	0.0
200	0x2e60f66d	5.1150573e-11
201	0x2e1e27d4	3.5960415e-11
202	0x2f92bcb4	2.6691327e-10
203	0x2d4fe55d	1.1817517e-11
204	0x2d865dff	1.5275779e-11
205	0x2e9dba91	7.172674e-11
206	0x2dde05fe	2.5241139e-11
207	0x2efc8a82	1.1484237e-10
208	0x2e5d4688	5.0312227e-11
209	0x2fbe5fc5	3.4628847e-10
210	0x32e67e04	2.683283e-08
211	0x32a55150	1.9245505e-08
212	0x310fc595	2.0921551e-09
213	0x31d7ea69	6.283973e-09
214	0x30d3d05e	1.5411492e-09
215	0x32066d6e	7.824708e-09
216	0x315af838	3.1864271e-09
217	0x3291c214	1.6968478e-08
218	0x3268c182	1.3548176e-08
219	0x31ffcfdb	7.445107e-09
220	0x32128b37	8.529972e-09
221	0x32adb8de	2.0223919e-08
222	0x32834706	1.5282705e-08
223	0x323b23ea	1.08929985e-08
224	0x31acd246	5.029764e-09
225	0x323be7fc	1.093758e-08
226	0x321cc2ae	9.12466e-09
227	0x32336f40	1.0444467e-08
228	0x31c551f9	5.742774e-09
229	0x31c126cb	5.6214495e-09
230	0x3006cdee	4.904156e-10
231	0x30dabd08	1.5915314e-09
232	0x2f0dff6e	1.2914622e-10
233	0x2ec4b62f	8.9454104e-11
234	0x2fb1afcb	3.232102e-10
235	0x303b0519	6.803745e-10
236	0x30a58cfd	1.2045401e-09
237	0x2f9f67d7	2.8995714e-10
238	0x309cf694	1.1420576e-09
239	0x304b2f80	7.391847e-10
240	0x30521989	7.643384e-10
241	0x31087284	1.98557e-09
242	0x3003c3ef	4.793596e-10
243	0x303f575d	6.9609546e-10
244	0x319262c7	4.260389e-09
245	0x30a559c7	1.2030846e-09
246	0x31b9bf28	5.4059406e-09
247	0x316338a5	3.3065046e-09
248	0x31ae87df	5.0795133e-09
249	0x313f9eee	2.78845e-09
250	0x2af6ee61	4.3863787e-13
251	0x2e271d7d	3.7997595e-11
252	0x2be3089c	1.613171e-12
253	0x2c64bb7b	3.2504821e-12
254	0x2e530bfa	4.7986483e-11
255	0x2e144b2d	3.3718073e-11

exp_avg f4 [64]
0	0x39ccb6fd	0.0003904625
1	0xb7937f48	-1.7583036e-05
2	0x3b0d356a	0.002154673
3	0xb8c3ca69	-9.3360264e-05
4	0xb88c599c	-6.692411e-05
5	0x3a11145e	0.0005534346
6	0x3a03b391	0.0005024011
7	0xb87e0356	-6.0561426e-05
8	0x3990dcc7	0.00027630312
9	0x3865ffb3	5.4835993e-05
10	0xb9aa5c25	-0.0003249358
11	0x3a5f2141	0.000851173
12	0xb94e3a0a	-0.00019667312
13	0x39b82161	0.00035120084
14	0xb974af25	-0.000233349
15	0xb68a6d71	-4.125461e-06
16	0x00000000	0.0
17	0x3a1fc364	0.0006094484
18	0xb993ea8b	-0.00028212773
19	0x00000000	0.0
20	0x38fdfd3b	0.00012111148
21	0xba6df101	-0.0009076745
22	0xba43567d	-0.00074515474
23	0xb8f483aa	-0.00011659351
24	0xb7e5b9b7	-2.7385408e-05
25	0x382c9926	4.1150626e-05
26	0xba15cf85	-0.0005714822
27	0x00000000	0.0
28	0x3adfd32f	0.0017076487
29	0x3a08b4a5	0.00052149064
30	0xba3f4f18	-0.00072978577
31	0x392e9a3a	0.00016651387
32	0xba99a8d6	-0.0011723291
33	0xb8e682fc	-0.000109916524
34	0x358813d6	1.0138563e-06
35	0x39bb49bb	0.00035722353
36	0x00000000	0.0
37	0xba07a397	-0.0005174218
38	0xb9aeddd2	-0.00033353135
39	0x38f0ffa3	0.00011491708
40	0xb932a349	-0.00017036231
41	0x39959bd3	0.00028535593
42	0xba1950cf	-0.0005848528
43	0x3ac14248	0.0014744485
44	0x38ff7ffa	0.00012183185
45	0x00000000	0.0
46	0x00000000	0.0
47	0xb99dc615	-0.00030092956
48	0x39011710	0.0001231099
49	0xba0b8aa5	-0.0005323089
50	0x397c4b2c	0.00024060596
51	0xb90a9f53	-0.00013220058
52	0xb938d5bd	-0.00017627231
53	0x00000000	0.0
54	0x3406d0cc	1.2555682e-07
55	0x00000000	0.0
56	0xb989131a	-0.00026144908
57	0xb9bbdaf1	-0.00035830543
58	0xba61c207	-0.0008611981
59	0x3820ccd1	3.8337723e-05
60	0xba4b9efd	-0.00077675265
61	0xb88f0708	-6.820081e-05
62	0xb75f785b	-1.3319858e-05
63	0xbaa3b6ce	-0.0012490393

exp_avg_sq f4 [64]
0	0x33026759	3.0361978e-08
1	0x2f1e24dd	1.4383113e-10
2	0x342524a5	1.5380154e-07
3	0x335d583e	5.1535828e-08
4	0x32eea1b4	2.778038e-08
5	0x33332398	4.1709058e-08
6	0x33cf3379	9.6485515e-08
7	0x32c00d55	2.2357804e-08
8	0x327115fb	1.4033044e-08
9	0x2f74bf18	2.2259561e-10
10	0x332a5685	3.96599e-08
11	0x3396732f	7.005871e-08
12	0x312a34dd	2.4768305e-09
13	0x339cab65	7.2954926e-08
14	0x33a6fde6	7.776161e-08
15	0x3125a781	2.4105875e-09
16	0x00000000	0.0
17	0x33c63492	9.229656e-08
18	0x334ca38c	4.7646196e-08
19	0x00000000	0.0
20	0x3005fe3c	4.8746407e-10
21	0x32c868d2	2.3330731e-08
22	0x330779fe	3.1543088e-08
23	0x311ed462	2.3112752e-09
24	0x3209eb7c	8.0279925e-09
25	0x2ef29869	1.10319594e-10
26	0x3395424a	6.950411e-08
27	0x00000000	0.0
28	0x33d700c0	1.0011854e-07
29	0x32998bbb	1.7875086e-08
30	0x32a60818	1.9328624e-08
31	0x33021982	3.0291183e-08
32	0x335c3a2f	5.127566e-08
33	0x335d74dc	5.1561855e-08
34	0x2b9d031d	1.1156385e-12
35	0x326cbc1e	1.3779781e-08
36	0x00000000	0.0
37	0x338a3756	6.436191e-08
38	0x32202b55	9.323078e-09
39	0x320374d8	7.651771e-09
40	0x3212923a	8.531567e-09
41	0x3341bbe8	4.5107214e-08
42	0x33cd6fb2	9.566374e-08
43	0x33ac2837	8.016689e-08
44	0x33264a89	3.8717676e-08
45	0x00000000	0.0
46	0x00000000	0.0
47	0x3341a1a9	4.5083343e-08
48	0x33ae2814	8.1097966e-08
49	0x3211541a	8.459233e-09
50	0x32fe6f0c	2.961999e-08
51	0x31c486c4	5.719672e-09
52	0x31e61235	6.695951e-09
53	0x00000000	0.0
54	0x2e0d5a84	3.2140082e-11
55	0x00000000	0.0
56	0x329058bb	1.6804156e-08
57	0x3347a3f1	4.6482402e-08
58	0x33981f79	7.0837764e-08
59	0x31eeba6c	6.9479054e-09
60	0x32d8748c	2.5198709e-08
61	0x2fd2ff30	3.83801e-10
62	0x334acd7a	4.721867e-08
63	0x3331f8ec	4.1437417e-08

exp_avg f4 [64, 64]
0	0x00000000	0.0
1	0x00000000	0.0
2	0x00000000	0.0
3	0x00000000	0.0
4	0x00000000	0.0
5	0x00000000	0.0
6	0x00000000	0.0
7	0x00000000	0.0
8	0x00000000	0.0
9	0x00000000	0.0
10	0x00000000	0.0
11	0x00000000	0.0
12	0x00000000	0.0
13	0x00000000	0.0
14	0x00000000	0.0
15	0x00000000	0.0
16	0x00000000	0.0
17	0x00000000	0.0
18	0x00000000	0.0
19	0x00000000	0.0
20	0x00000000	0.0
21	0x00000000	0.0
22	0x00000000	0.0
23	0x00000000	0.0
24	0x00000000	0.0
25	0x00000000	0.0
26	0x00000000	0.0
27	0x00000000	0.0
28	0x00000000	0.0
29	0x00000000	0.0
30	0x00000000	0.0
31	0x00000000	0.0
32	0x00000000	0.0
33	0x00000000	0.0
34	0x00000000	0.0
35	0x00000000	0.0
36	0x00000000	0.0
37	0x00000000	0.0
38	0x00000000	0.0
39	0x00000000	0.0
40	0x00000000	0.0
41	0x00000000	0.0
42	0x00000000	0.0
43	0x00000000	0.0
44	0x00000000	0.0
45	0x00000000	0.0
46	0x00000000	0.0
47	0x00000000	0.0
48	0x00000000	0.0
49	0x00000000	0.0
50	0x00000000	0.0
51	0x00000000	0.0
52	0x00000000	0.0
53	0x00000000	0.0
54	0x00000000	0.0
55	0x00000000	0.0
56	0x00000000	0.0
57	0x00000000	0.0
58	0x00000000	0.0
59	0x00000000	0.0
60	0x00000000	0.0
61	0x00000000	0.0
62	0x00000000	0.0
63	0x00000000	0.0
64	0xb9d2482b	-0.0004010809
65	0xb4a39b1d	-3.0473976e-07
66	0xb9daa5ef	-0.0004170383
67	0xb9f0f992	-0.00045962312
68	0xb9e302b2	-0.00043298822
69	0xba051de2	-0.0005078
70	0xb96dc897	-0.00022676807
71	0xb9715615	-0.00023015619
72	0xb838d99d	-4.4071687e-05
73	0xb6abe76e	-5.123139e-06
74	0xba29f2b7	-0.0006483006
75	0xba528627	-0.00080308545
76	0xb86dd412	-5.670271e-05
77	0xb9cee93a	-0.0003946515
78	0xba2ef466	-0.00066739914
79	0xb757d2e2	-1.2864099e-05
80	0x00000000	0.0
81	0xb8bc732d	-8.985992e-05
82	0xb95a0fca	-0.00020795982
83	0x00000000	0.0
84	0x353d8702	7.060445e-07
85	0xb79bd7b0	-1.8577877e-05
86	0x370c4a34	8.361927e-06
87	0x37a9a38e	2.0222531e-05
88	0x38918675	6.9391834e-05
89	0xb54598f7	-7.361081e-07
90	0x38571828	5.128249e-05
91	0x00000000	0.0
92	0xb8a2ac76	-7.756885e-05
93	0xb924f922	-0.00015733068
94	0xb83d9a56	-4.5204848e-05
95	0xb90b0452	-0.00013257682
96	0x38c9847a	9.6091026e-05
97	0xb9d5bac9	-0.00040765692
98	0x00000000	0.0
99	0xb9070e4a	-0.00012879926
100	0x00000000	0.0
101	0xba1f27e0	-0.00060713105
102	0xb92a509d	-0.00016242494
103	0xb8cf40fd	-9.882634e-05
104	0x382ab9b7	4.070412e-05
105	0x398269e9	0.0002487444
106	0x395d9a0a	0.00021133586
107	0xb9a67781	-0.00031751025
108	0x3929009d	0.00016117324
109	0x00000000	0.0
110	0x00000000	0.0
111	0xb96f27e1	-0.00022807672
112	0xb9a57d2c	-0.00031564513
113	0xb7db8f0f	-2.6173451e-05
114	0xb8e40833	-0.000108734144
115	0xb982e416	-0.0002496547
116	0xb9b39eba	-0.000342598
117	0x00000000	0.0
118	0x34d2ffae	3.930158e-07
119	0x00000000	0.0
120	0x3926c9ee	0.00015906218
121	0x3887c17b	6.47334e-05
122	0xba43b370	-0.0007465398
123	0xb7d1dd72	-2.501786e-05
124	0xb9e64af6	-0.0004392487
125	0xb7ab931f	-2.0453297e-05
126	0xb9977b5f	-0.00028892883
127	0xb9ecd784	-0.00045174
128	0x3952efdc	0.00020116515
129	0x349b3051	2.8906155e-07
130	0xb9ef1e92	-0.0004560841
131	0x38b2d667	8.527637e-05
132	0xba314349	-0.00067620404
133	0x3a8d0824	0.0010759872
134	0x38f304ff	0.000115880735
135	0xb985af3d	-0.000254983
136	0xb86ae5bd	-5.6003908e-05
137	0xb6d25741	-6.2686454e-06
138	0x394e2a18	0.00019661372
139	0xb9b7c119	-0.0003504835
140	0xb677cd72	-3.6925453e-06
141	0xb999a017	-0.0002930171
142	0xba21a971	-0.00061669113
143	0xb818537b	-3.631737e-05
144	0x00000000	0.0
145	0x395c35c0	0.00021000858
146	0x38f7d8f7	0.00011818291
147	0x00000000	0.0
148	0xb7067c34	-8.015941e-06
149	0x38bda813	9.0435286e-05
150	0x39246960	0.00015679514
151	0x3872f3d6	5.7924386e-05
152	0x350cf32d	5.250793e-07
153	0xb33d784d	-4.4114405e-08
154	0x391e510c	0.00015098247
155	0x00000000	0.0
156	0x3a57bf84	0.0008230137
157	0x39da1af8	0.00041600293
158	0x3993bc3b	0.00028178268
159	0x39376dba	0.00017493116
160	0xb9931106	-0.00028050708
161	0x37848a87	1.5800133e-05
162	0xb5d14b1c	-1.5593573e-06
163	0xb661cc0e	-3.3646388e-06
164	0x00000000	0.0
165	0xb725c490	-9.880532e-06
166	0xb8dc7c9e	-0.00010513629
167	0xb97a21ae	-0.00023854405
168	0x3a2145af	0.0006152046
169	0xb944e2b6	-0.00018776473
170	0xb97a0463	-0.00023843492
171	0x39db8b7d	0.00041874862
172	0xb8d71388	-0.00010255637
173	0x00000000	0.0
174	0x00000000	0.0
175	0x393690e3	0.00017410847
176	0x36e8515b	6.92361e-06
177	0xb6ff41a8	-7.6072356e-06
178	0x374b4340	1.2115401e-05
179	0xb802def1	-3.1202046e-05
180	0xb9749d95	-0.00023328357
181	0x00000000	0.0
182	0xb67e7d6b	-3.7921952e-06
183	0x00000000	0.0
184	0xba417693	-0.00073800347
185	0x38c1678a	9.222243e-05
186	0x398d2449	0.0002692065
187	0xb8157f39	-3.5642854e-05
188	0xb891c4bc	-6.9507834e-05
189	0xb7edf873	-2.8368295e-05
190	0xb95874a2	-0.00020642814
191	0xb9dd9ab5	-0.0004226767
192	0x00000000	0.0
193	0x00000000	0.0
194	0x00000000	0.0
195	0x00000000	0.0
196	0x00000000	0.0
197	0x00000000	0.0
198	0x00000000	0.0
199	0x00000000	0.0
200	0x00000000	0.0
201	0x00000000	0.0
202	0x00000000	0.0
203	0x00000000	0.0
204	0x00000000	0.0
205	0x00000000	0.0
206	0x00000000	0.0
207	0x00000000	0.0
208	0x00000000	0.0
209	0x00000000	0.0
210	0x00000000	0.0
211	0x00000000	0.0
212	0x00000000	0.0
213	0x00000000	0.0
214	0x00000000	0.0
215	0x00000000	0.0
216	0x00000000	0.0
217	0x00000000	0.0
218	0x00000000	0.0
219	0x00000000	0.0
220	0x00000000	0.0
221	0x00000000	0.0
222	0x00000000	0.0
223	0x00000000	0.0
224	0x00000000	0.0
225	0x00000000	0.0
226	0x00000000	0.0
227	0x00000000	0.0
228	0x00000000	0.0
229	0x00000000	0.0
230	0x00000000	0.0
231	0x00000000	0.0
232	0x00000000	0.0
233	0x00000000	0.0
234	0x00000000	0.0
235	0x00000000	0.0
236	0x00000000	0.0
237	0x00000000	0.0
238	0x00000000	0.0
239	0x00000000	0.0
240	0x00000000	0.0
241	0x00000000	0.0
242	0x00000000	0.0
243	0x00000000	0.0
244	0x00000000	0.0
245	0x00000000	0.0
246	0x00000000	0.0
247	0x00000000	0.0
248	0x00000000	0.0
249	0x00000000	0.0
250	0x00000000	0.0
251	0x00000000	0.0
252	0x00000000	0.0
253	0x00000000	0.0
254	0x00000000	0.0
255	0x00000000	0.0
