models/test_rigorous.onnx (onnx, 13620 bytes, 4 tensors)

shared.0.bias f4 [64]
-0.049613386 -0.113727726 -0.2961247 0.007429498 0.2054911 0.063982055 -0.009567219 0.056196667
0.17350754 -0.15297148 -0.22750856 -0.18111536 -0.104797184 0.30964488 0.019604802 -0.2871677
0.030312251 -0.00978107 0.12132558 0.1448336 -0.033527546 0.18106332 -0.14072974 -0.10301717
-0.1469817 0.30564582 -0.09339671 0.048139907 -0.08356112 -0.11530757 -0.070006736 -0.02345565
-0.07057354 0.004655597 0.035166834 -0.031327214 -0.25121036 -0.3112871 -0.065807335 -0.2464028
-0.16670989 -0.033508837 -0.1170848 -0.0399113 0.20970139 0.19032742 0.05582875 -0.23885001
0.3197382 0.15966672 -0.27351093 0.20236173 -0.29641768 -0.13168794 -0.084313646 -0.25361434
-0.18039177 -0.2008865 0.06254851 0.07221829 -0.2969983 -0.10396113 0.14905931 0.24928541
00000000: 6837 4bbd 15ea e8bd a89d 97be 2573 f33b
00000010: 426c 523e 0609 833d d3bf 1cbc 7a2e 663d
00000020: f6ab 313e 8ea4 1cbe 01f8 68be 4e76 39be
00000030: e89f d6bd c689 9e3e 409a a03c a507 93be
00000040: 6651 f83c c840 20bc 8c79 f83d 424f 143e
00000050: 2e54 09bd aa68 393e 751b 10be abfa d2bd
00000060: 5f82 16be 9c7d 9c3e c646 bfbd 5a2e 453d
00000070: 1822 abbd 6026 ecbd b15f 8fbd 1026 c0bc
00000080: dc88 90bd fa8d 983b 190b 103d f750 00bd
00000090: a59e 80be 0661 9fbe ffc5 86bd 0451 7cbe
000000a0: ffb5 2abe 9040 09bd 28ca efbd 087a 23bd
000000b0: f6bb 563e 31e5 423e b0ac 643d 1995 74be
000000c0: bab4 a33e ac7f 233e a009 8cbe ea37 4f3e
000000d0: 0fc4 97be 34d9 06be a2ac acbd bdd9 81be
000000e0: 9fb8 38be 31b5 4dbe 6f19 803d 2fe7 933d
000000f0: 2910 98be 93e9 d4bd 01a3 183e ad44 7f3e

shared.2.bias f4 [64]
0.0037781796 -0.0041149594 0.09677649 -0.08410848 0.035553407 0.10308186 -0.11139157 0.08955877
0.05540486 0.030982744 -0.04758347 -0.08667824 0.089740396 0.071421415 -0.024705388 -0.115818426
0.020748375 0.018328367 -0.122493915 0.063269265 0.060105745 -0.050553795 0.011766343 -0.033594154
0.09952104 -0.10276012 -0.105973125 0.034272246 0.088211626 -0.04426447 -0.012255225 0.009849508
-0.017928524 0.017353801 -0.08280574 -0.0053871097 0.028467456 0.015145174 0.0056195995 -0.00208025
-0.082747474 0.05122257 -0.117087126 -0.08450301 -0.06328743 0.054036427 0.024601676 -0.05904836
-0.048324723 -0.048004422 0.11818624 0.09237435 -0.08057495 0.025189698 0.059952352 -0.033650994
0.021956429 -0.12284278 -0.09312042 -0.10529931 -0.052994404 -0.024638414 -0.048787054 0.09128407
00000000: 569b 773b c8d6 86bb c132 c63d 1141 acbd
00000010: 73a0 113d 951c d33d 4321 e4bd 976a b73d
00000020: 35f0 623d 86cf fd3c e2e6 42bd 5c84 b1bd
00000030: d0c9 b73d 6445 923d f462 cabc 3632 edbd
00000040: 7ff8 a93c 5f25 963c 17de fabd 5193 813d
00000050: 7131 763d 7f11 4fbd 9fc7 403c 069a 09bd
00000060: b0d1 cb3d e673 d2bd 7008 d9bd 0e61 0c3d
00000070: 4ca8 b43d a94e 35bd 24ca 48bc d55f 213c
00000080: d7de 92bc 8f29 8e3c 0e96 a9bd 5a86 b0bb
00000090: 9534 e93c 7723 783c 9e24 b83b ce54 08bb
000000a0: 8277 a9bd c2ce 513d 60cb efbd ea0f adbd
000000b0: d79c 81bd 4d55 5d3d 7489 c93c b1dc 71bd
000000c0: 25f0 45bd 49a0 44bd a10b f23d c32e bd3d
000000d0: 7b04 a5bd a05a ce3c 9990 753d a0d5 09bd
000000e0: f8dd b33c ff94 fbbd ebb5 bebd 2aa7 d7bd
000000f0: a910 59bd 80d6 c9bc efd4 47bd 24f3 ba3d

actor.0.bias f4 [5]
0.01653603 -0.11900489 0.11894478 0.08257171 0.025898416
00000000: 9276 873c d6b8 f3bd 5299 f33d 5b1b a93d
00000010: ea28 d43c

critic.0.weight f4 [1, 64]
-0.105123945 -0.035409886 0.120593496 0.110475264 -0.098559365 -0.09071474 0.04013401 -0.072943956
-0.048865993 0.12127449 0.05302901 -0.09657231 0.09297675 0.08516421 0.09556087 0.08091779
-0.03881591 0.10707763 -0.0052009467 0.12733261 -0.076622814 -0.106900714 -0.018308913 -0.03678101
0.058072086 0.043472424 0.066986494 -0.06127605 -0.08599489 -0.015289733 0.0659183 0.10769848
0.030188814 0.10701754 0.026362807 -0.09915144 -0.0024876657 -0.11485185 -0.05240863 -0.09078497
0.06338899 0.0031681326 -0.0853081 -0.062323533 -0.017691398 0.04106483 0.09339795 -0.007005274
-0.0062190318 0.0031472936 -0.09001307 -0.061338663 -0.06554685 -0.04617039 0.122329324 -0.11952457
-0.08360333 -0.020462777 -0.07219653 0.07008312 0.054228757 0.122954726 0.124646395 -0.007617759
00000000: 394b d7bd f509 11bd b9f9 f63d db40 e23d
00000010: 7ed9 c9bd a6c8 b9bd 8f63 243d a463 95bd
00000020: b527 48bd c35e f83d f234 593d b4c7 c5bd
00000030: 986a be3d 936a ae3d 6bb5 c33d 3ab8 a53d
00000040: 6ffd 1ebd 844b db3d b46c aabb 7b63 023e
00000050: 6cec 9cbd c3ee dabd 93fc 95bc afa7 16bd
00000060: ffdc 6d3d 2410 323d 3730 893d 98fc 7abd
00000070: 171e b0bd ca81 7abc 2c00 873d 0591 dc3d
00000080: 884e f73c 032c db3d d0f6 d73c e90f cbbd
00000090: 1b08 23bb 7237 ebbd 6eaa 56bd 78ed b9bd
000000a0: 16d2 813d 72a0 4f3b 03b6 aebd f646 7fbd
000000b0: 8ded 90bc 9833 283d 6d47 bf3d 7f8c e5bb
000000c0: 05c9 cbbb d342 4e3b c658 b8bd 403e 7bbd
000000d0: 6d3d 86bd 2a1d 3dbd cc87 fa3d 4cc9 f4bd
000000e0: 3938 abbd 8ea1 a7bc c6db 93bd bd87 8f3d
000000f0: f91e 5e3d b0cf fb3d 9c46 ff3d 659e f9bb
