models/test_rigorous.pt (torch, 73191 bytes, 21 tensors)

shared.0.weight f4 [64, 10]
0	0xbe9b96c7	-0.3038847
1	0x3e365a7b	0.17807953
2	0x3dbd2338	0.09235233
3	0x3e8f58e2	0.279975
4	0xbe126d3e	-0.14299485
5	0x3e3d6049	0.18493761
6	0x3e3243be	0.17408654
7	0x3ea09052	0.31360108
8	0xbe2741df	-0.16333722
9	0x3e8b55dc	0.27213943
10	0x3e414d5d	0.18877168
11	0xbe3034e8	-0.17207682
12	0x3dd2cd84	0.10293105
13	0xbe382254	-0.17981845
14	0xbe935fa0	-0.28783894
15	0xbc89080d	-0.016727472
16	0xbe52671c	-0.20547146
17	0x3e1bd056	0.15216193
18	0x3e90c457	0.28274795
19	0xbe982ff5	-0.29724088
20	0x3e2d7b3c	0.16941541
21	0xbe9538da	-0.29144937
22	0xbea101b8	-0.31446624
23	0x3de15362	0.11002232
24	0xbcd3484f	-0.025791315
25	0x3cc0fa4a	0.023556847
26	0xbe6ed62a	-0.23323885
27	0xbe51419e	-0.20435187
28	0x3cdfdc89	0.027326839
29	0xbb9cd58b	-0.0047861985
30	0xbda6c7a7	-0.081435494
31	0xbe56b876	-0.20968804
32	0x3e991352	0.29897553
33	0xbd6a0b9a	-0.05713997
34	0xbe609abb	-0.21934025
35	0x3e9165e1	0.2839804
36	0x3e40e47c	0.1883716
37	0xbe267ee3	-0.16259341
38	0xbda6582a	-0.08122285
39	0xbd7702e9	-0.06030551
40	0x3e360155	0.17773946
41	0xbd3a20c8	-0.04544142
42	0x3e4fe559	0.20302333
43	0x3e811340	0.2521
44	0xbe418dfb	-0.18901818
45	0x3deb333e	0.11484383
46	0x3dd79eb6	0.105283186
47	0xbc4a6f87	-0.012355692
48	0xbe84f6d4	-0.25969565
49	0xbc217b1b	-0.009856011
50	0xbe100051	-0.1406262
51	0xbe44d1a2	-0.19220594
52	0x3e8d69d2	0.27619797
53	0xbbbdedb9	-0.005796161
54	0xbe954345	-0.29152885
55	0xbe940945	-0.28913322
56	0x3ea04713	0.31304225
57	0x3e2c5b42	0.16831687
58	0x3e5775f1	0.21041085
59	0x3dec9769	0.11552317
60	0xbd062645	-0.03275134
61	0xbd721043	-0.05909754
62	0x3e958452	0.29202515
63	0xbd841dc1	-0.064509876
64	0xbe38ef83	-0.18060116
65	0xbd3bd79f	-0.04585993
66	0xbdd163ae	-0.102240905
67	0xbd2f654e	-0.04282122
68	0x3e00cfc1	0.12579252
69	0x3e6e2b46	0.23258695
70	0xbe2fb7e3	-0.17159991
71	0xbe960001	-0.29296878
72	0x3c8cbbed	0.017179454
73	0x3e9c85d8	0.30570865
74	0x3e891ea6	0.26781195
75	0x3e03140d	0.12800618
76	0x3e1450e2	0.1448398
77	0x3e8a6249	0.2702811
78	0x3d204b98	0.03913459
79	0xbe942fa2	-0.2894259
80	0xbe979662	-0.2960692
81	0x3d75d5a4	0.060018197
82	0x3db332e8	0.08749944
83	0x3e82fc83	0.25583276
84	0xbe78cc20	-0.24296618
85	0xbd9d801e	-0.07690452
86	0xbe8bba12	-0.27290398
87	0xbd310321	-0.043215875
88	0xbd81f000	-0.063446045
89	0x3d6ca4d0	0.057774365
90	0xbdd801d0	-0.10547221
91	0xbd15ef8c	-0.036605403
92	0x3e861eb3	0.26195297
93	0x3e9cda07	0.30635092
94	0x3e8047df	0.25054833
95	0xbea3876a	-0.3193925
96	0xbe674514	-0.22584945
97	0xbe7a4110	-0.24438882
98	0xbe2dbe49	-0.1696712
99	0x3dfeb89c	0.12437555
100	0x3d8158aa	0.063157395
101	0xbe0ea27c	-0.1392917
102	0xbe4d0eb5	-0.20025142
103	0xbbc86b52	-0.006116309
104	0x3e58f4a7	0.21187077
105	0xbe84a86b	-0.25909743
106	0x3aab9ce4	0.0013093022
107	0xbdcf7ec1	-0.10131598
108	0x3d2e05ee	0.042486124
109	0xbe5c1e02	-0.21495822
110	0x3e95681e	0.29180998
111	0x3df36774	0.118849665
112	0xbcd86ce9	-0.02641912
113	0x3d8f4d5a	0.069971755
114	0xbd367ae9	-0.04455081
115	0xbe5f3748	-0.21798432
116	0x3bba7c12	0.00569106
117	0x3e870166	0.26368254
118	0xbdb29e43	-0.08721592
119	0xbd9e3b3d	-0.077261426
120	0x3e8fde1b	0.2809914
121	0xbe5deaf8	-0.21671665
122	0x3e7c5886	0.24643144
123	0x3d2d3e47	0.04229572
124	0xbdfdf309	-0.12399871
125	0xbe6e9b02	-0.23301318
126	0xbd05336e	-0.03251975
127	0xbe500e1f	-0.20317887
128	0xbe50b70c	-0.20382327
129	0xbe854a3e	-0.26033205
130	0x3e3154e6	0.17317542
131	0xbe9622b3	-0.29323348
132	0x3e896eef	0.26842448
133	0x3cbb0f50	0.02283445
134	0xbe0b0631	-0.1357658
135	0x3e434519	0.19069327
136	0x3e995cc4	0.29953587
137	0x3a846b2d	0.0010102742
138	0xbe617c6d	-0.22020121
139	0x3e3be009	0.18347181
140	0xbd58da4c	-0.05294256
141	0x3e5e364e	0.21700403
142	0xbd5a44bc	-0.053288206
143	0x3e354428	0.17701781
144	0x3d7c558e	0.06160503
145	0x3dca4ec3	0.09878304
146	0x3e765a09	0.24057783
147	0x3ea28d05	0.31748214
148	0xbd491de3	-0.049100768
149	0x3e950c91	0.2911115
150	0xbe7f68cc	-0.2494232
151	0xbcc029de	-0.023457464
152	0xbdf3b00c	-0.11898813
153	0x3e2c3b39	0.16819467
154	0x3e8135c9	0.25236347
155	0x3e3ce34b	0.1844608
156	0x3de5bd8d	0.112177946
157	0xbd91ff5f	-0.07128786
158	0xbe7dc464	-0.24781948
159	0xbe38e854	-0.18057376
160	0x3e72c3bc	0.23707479
161	0xbe7161bf	-0.23572443
162	0x3d7cf225	0.061754365
163	0xbe6e44ea	-0.23268476
164	0x3e9d6a45	0.3074514
165	0xbd835485	-0.06412605
166	0x3d982434	0.0742878
167	0xbe5334ab	-0.2062556
168	0xbe9f7767	-0.31145784
169	0xbd7b2d28	-0.06132236
170	0x3e6ecb31	0.23319699
171	0x3e9960f4	0.29956782
172	0x3e858e69	0.26085213
173	0xbe1c756b	-0.15279166
174	0xbe30028a	-0.17188469
175	0x3d303068	0.043014914
176	0x3e96f81d	0.2948617
177	0xbdf88dea	-0.12136443
178	0xbdc5cf38	-0.096586645
179	0x3e4cc20a	0.19995895
180	0xbe88d649	-0.26725987
181	0xbd84a12d	-0.06476054
182	0xbde5799e	-0.11204837
183	0xbbd957fe	-0.006632804
184	0xbe2931d0	-0.16522908
185	0xbe79f44f	-0.24409603
186	0x3e0af0e2	0.13568452
187	0xbe018c3a	-0.12651148
188	0xbe8e34a7	-0.27774546
189	0x3de29e37	0.11065333
190	0x3de8ca29	0.11366684
191	0xbe9d58ef	-0.30731913
192	0x3d75d982	0.060021885
193	0xbe87b570	-0.26505613
194	0xbd35073c	-0.044196352
195	0xbe8e4331	-0.27785638
196	0x3e1e07af	0.15432619
197	0xbe130572	-0.14357546
198	0xbe02b52b	-0.12764423
199	0x3df1b420	0.11801934
200	0x3e674853	0.22586183
201	0xbdbfe09d	-0.093690135
202	0x3e8863b2	0.2663856
203	0x3e59976e	0.21249172
204	0xbe33caf4	-0.17557889
205	0xbe88cf61	-0.26720718
206	0x3e21e4e7	0.15809976
207	0xbe5c1098	-0.21490705
208	0xbe632c3d	-0.22184844
209	0x3d2ab571	0.041676942
210	0x3e522a3d	0.20523925
211	0xbe19265f	-0.14956044
212	0x3e21b198	0.15790403
213	0x3e64d43d	0.22346587
214	0xbe2ff8de	-0.17184779
215	0x3d704b48	0.058665544
216	0x3e807993	0.25092754
217	0xbe820d22	-0.25400645
218	0x3e900b4c	0.2813362
219	0x3e9c6ead	0.3055319
220	0xbe9b2854	-0.30304205
221	0xbe9d2fdb	-0.30700573
222	0xbd5e49fa	-0.05426977
223	0x3d363c40	0.044491053
224	0xbe8a4e4f	-0.2701287
225	0x3e770a0e	0.2412493
226	0xbd5aadd7	-0.053388443
227	0xbde96b0d	-0.113973714
228	0xbe931976	-0.28730363
229	0xbe7fb58a	-0.24971595
230	0x3e57a838	0.21060264
231	0x3e92d5a8	0.28678632
232	0xbd0ee8ef	-0.03489011
233	0xbdefe476	-0.11713497
234	0x3e2b3749	0.16720308
235	0x3ddc8d5b	0.10769149
236	0xbe9c9c36	-0.3058793
237	0x3cca1ab5	0.024670938
238	0x3b7d554a	0.0038655573
239	0xbe823b1a	-0.25435716
240	0xbe29125a	-0.16510907
241	0x3e6f9e4c	0.23400229
242	0x3df66901	0.12031747
243	0xbe294612	-0.16530636
244	0x3dbe68f1	0.0929736
245	0x3e450198	0.19238889
246	0xbe0df11a	-0.13861504
247	0x3e965320	0.29360294
248	0x3e97d690	0.29655886
249	0xbdd7f53f	-0.10544824
250	0xbd959ad2	-0.0730492
251	0x3dd6262a	0.10456498
252	0x3e6f671b	0.23379175
253	0xbe8154d1	-0.25260022
254	0xbe1b98d8	-0.15195024
255	0xbd8f6bdb	-0.07002994

shared.0.bias f4 [64]
0	0xbd4b3768	-0.049613386
1	0xbde8ea15	-0.113727726
2	0xbe979da8	-0.2961247
3	0x3bf37325	0.007429498
4	0x3e526c42	0.2054911
5	0x3d830906	0.063982055
6	0xbc1cbfd3	-0.009567219
7	0x3d662e7a	0.056196667
8	0x3e31abf6	0.17350754
9	0xbe1ca48e	-0.15297148
10	0xbe68f801	-0.22750856
11	0xbe39764e	-0.18111536
12	0xbdd69fe8	-0.104797184
13	0x3e9e89c6	0.30964488
14	0x3ca09a40	0.019604802
15	0xbe9307a5	-0.2871677
16	0x3cf85166	0.030312251
17	0xbc2040c8	-0.00978107
18	0x3df8798c	0.12132558
19	0x3e144f42	0.1448336
20	0xbd09542e	-0.033527546
21	0x3e3968aa	0.18106332
22	0xbe101b75	-0.14072974
23	0xbdd2faab	-0.10301717
24	0xbe16825f	-0.1469817
25	0x3e9c7d9c	0.30564582
26	0xbdbf46c6	-0.09339671
27	0x3d452e5a	0.048139907
28	0xbdab2218	-0.08356112
29	0xbdec2660	-0.11530757
30	0xbd8f5fb1	-0.070006736
31	0xbcc02610	-0.02345565
32	0xbd9088dc	-0.07057354
33	0x3b988dfa	0.004655597
34	0x3d100b19	0.035166834
35	0xbd0050f7	-0.031327214
36	0xbe809ea5	-0.25121036
37	0xbe9f6106	-0.3112871
38	0xbd86c5ff	-0.065807335
39	0xbe7c5104	-0.2464028
40	0xbe2ab5ff	-0.16670989
41	0xbd094090	-0.033508837
42	0xbdefca28	-0.1170848
43	0xbd237a08	-0.0399113
44	0x3e56bbf6	0.20970139
45	0x3e42e531	0.19032742
46	0x3d64acb0	0.05582875
47	0xbe749519	-0.23885001
48	0x3ea3b4ba	0.3197382
49	0x3e237fac	0.15966672
50	0xbe8c09a0	-0.27351093
51	0x3e4f37ea	0.20236173
52	0xbe97c40f	-0.29641768
53	0xbe06d934	-0.13168794
54	0xbdacaca2	-0.084313646
55	0xbe81d9bd	-0.25361434
56	0xbe38b89f	-0.18039177
57	0xbe4db531	-0.2008865
58	0x3d80196f	0.06254851
59	0x3d93e72f	0.07221829
60	0xbe981029	-0.2969983
61	0xbdd4e993	-0.10396113
62	0x3e18a301	0.14905931
63	0x3e7f44ad	0.24928541

shared.2.weight f4 [64, 64]
0	0xbd33d825	-0.043907303
1	0xbdb79b8a	-0.089652136
2	0x3d48077c	0.048835263
3	0xbdb489cc	-0.08815345
4	0xbd7c1d4f	-0.06155139
5	0xbd1b6ee8	-0.037947565
6	0x3d46a924	0.04850115
7	0xbda0224e	-0.07819043
8	0x3d7c9e24	0.061674252
9	0xbda461b0	-0.08026445
10	0x3d964588	0.07337481
11	0xbc4fe1a3	-0.012688073
12	0xbd2d94a8	-0.042378098
13	0xbd115a12	-0.03548629
14	0xbd9f7083	-0.07785132
15	0x3d50dbc4	0.050990835
16	0xbcb9a865	-0.022663305
17	0x3ccaec81	0.024770977
18	0xbdab205e	-0.08355783
19	0xbdd83004	-0.10556033
20	0x3cb58158	0.022156402
21	0xbdb7aea6	-0.089688584
22	0x3d9a3a64	0.075306684
23	0xbc87e3a8	-0.016588047
24	0x3cb4ed5c	0.022085838
25	0xbdf2bcc1	-0.11852408
26	0x3d8114f0	0.06302822
27	0x3dfbe2d4	0.122991234
28	0x3df206bb	0.1181769
29	0xbbf03c40	-0.007331401
30	0x3bfe66c9	0.007763718
31	0x3cab93d8	0.02094452
32	0x3b19fa80	0.0023495257
33	0xbd876a3e	-0.06612061
34	0xbc16f6c0	-0.009214103
35	0xbcfc2e50	-0.030783802
36	0xbd5eab50	-0.054362595
37	0xbd134feb	-0.035964888
38	0x3d818c18	0.06325549
39	0x3d751354	0.059832886
40	0x3dabd3d6	0.08390014
41	0xbde09ad8	-0.10967034
42	0xbc6d1e30	-0.014472529
43	0x3d6366a0	0.055517793
44	0x3c4db150	0.012554482
45	0xbd860220	-0.06543374
46	0xbd5798f4	-0.0526361
47	0xbd7eaae4	-0.062174693
48	0x3db02bf5	0.08602134
49	0x3d394ddc	0.045240268
50	0x3db84f22	0.089994684
51	0xbde546b1	-0.11195124
52	0xb8995800	-7.312e-05
53	0xbdd838cc	-0.10557708
54	0x3bff2ba0	0.007787183
55	0xbd301b60	-0.042994857
56	0x3dce9c09	0.10088355
57	0xbdc5122c	-0.09622607
58	0xbd80c3f6	-0.062873766
59	0x3dbda7f3	0.092605494
60	0xbd41130c	-0.047137305
61	0xbdd95a3a	-0.106129125
62	0x3df965cf	0.121776216
63	0xbce7664c	-0.028247021
64	0x3d7ac881	0.06122637
65	0xbd845dc7	-0.06463199
66	0x3d04d140	0.03242612
67	0xbe00b6ae	-0.12569687
68	0x3c6b50e3	0.014362547
69	0x3dde54e4	0.10856035
70	0xbdf7bce5	-0.12096576
71	0x3d1df3d0	0.038562596
72	0xbdd5450e	-0.10413562
73	0xbdcfeb11	-0.10152257
74	0xbdd4d148	-0.1039148
75	0x3d5a1e10	0.053251326
76	0x3ddcc61b	0.10779973
77	0x3db8f25b	0.09030601
78	0xbdf41d8f	-0.119197
79	0x3da91286	0.08255486
80	0xbdd59f79	-0.104308076
81	0x3cafdb22	0.021466795
82	0xbddb0f1a	-0.1069624
83	0xbb3d6664	-0.002890014
84	0x3d8d7c2c	0.069084495
85	0x3d67438d	0.056460906
86	0x3c556990	0.013025656
87	0x3dcc2c8f	0.099694364
88	0xbd7d2877	-0.06180617
89	0x3de62eca	0.11239393
90	0xbbb558cd	-0.0055342675
91	0x3debbfec	0.115112156
92	0xbd4507d4	-0.04810317
93	0xbc45bfcc	-0.012069654
94	0x3d85eebd	0.06539676
95	0xbb2d679b	-0.0026459459
96	0xbd422ae8	-0.0474042
97	0xbc8bb1fa	-0.01705264
98	0x3b84a27f	0.0040476914
99	0x3db35838	0.08757061
100	0xbd810993	-0.06300654
101	0xbdceb688	-0.10093409
102	0x3d50882b	0.05091111
103	0x3a8a4617	0.0010549453
104	0x3d06ec55	0.032940228
105	0x3ce9953d	0.028513545
106	0x3dbe7a7d	0.093007065
107	0x3d7196a1	0.05898154
108	0xbdaf3217	-0.08554476
109	0xbd1427d6	-0.036170803
110	0xbd3106de	-0.04321944
111	0xba0275e6	-0.00049766747
112	0x3df6ea76	0.120564386
113	0xbda1efb9	-0.079070516
114	0x3dea745d	0.11447976
115	0x3cab6219	0.0209208
116	0xbd3051fc	-0.043046936
117	0x3dd4b74e	0.10386525
118	0xbdeeb5a0	-0.11655736
119	0xbd2cd9eb	-0.04220001
120	0x3dcf9fa5	0.10137872
121	0xbc82c93b	-0.015965095
122	0x3d6e5a6c	0.0581917
123	0x3d8bc45a	0.068245605
124	0xbd8266f2	-0.063672915
125	0x3db0740e	0.08615886
126	0x3cfb55c6	0.030680548
127	0xbd281bdc	-0.041042194
128	0xbd97dc11	-0.07415021
129	0xbdeb9d54	-0.11504617
130	0xbd5f9738	-0.054587573
131	0xbdb8fdac	-0.09032759
132	0x3dece9ca	0.11568029
133	0xbdfe1c2a	-0.124077156
134	0xbdc23736	-0.09483187
135	0x3d59e509	0.05319694
136	0x3de6ff38	0.11279148
137	0x3c1e87a9	0.009675899
138	0xbd1d48a8	-0.03839937
139	0x3d59132a	0.052996792
140	0x3b7c61ec	0.0038510514
141	0x3dfcc4df	0.12342238
142	0xbd84d8db	-0.064866744
143	0xbdacfae7	-0.08446293
144	0x3db59fd7	0.08868378
145	0xbd65c3e0	-0.056095004
146	0xbd86c28e	-0.06580077
147	0xbdfd4672	-0.12366952
148	0xbd4f25d3	-0.05057318
149	0x3d8067fd	0.06269834
150	0x3d6e039c	0.05810891
151	0x3dd5759a	0.10422821
152	0x3dad61d1	0.084659226
153	0xbab53e7c	-0.0013827826
154	0xbdc008e0	-0.09376693
155	0x3cb64d8a	0.02225377
156	0x3df5b85c	0.119980544
157	0x3d94ae00	0.0725975
158	0x3afa46a2	0.0019094537
159	0x3d81e6fe	0.063428864
160	0xbd2c378b	-0.042045157
161	0xbddfdc08	-0.109306395
162	0xbcb7aeca	-0.022422213
163	0x3d67ddb2	0.05660791
164	0x3ce77ff0	0.028259248
165	0xbda3b37b	-0.079932176
166	0x3dcc40bc	0.099732846
167	0xbd141352	-0.036151238
168	0xbbe8a28b	-0.0070994548
169	0x3ddce00d	0.10784922
170	0xbd5e36bb	-0.054251414
171	0xbddf2dfe	-0.10897444
172	0x3d062263	0.032747637
173	0xbc3be02f	-0.011467024
174	0x3dfd1243	0.12356999
175	0xbdfc13ac	-0.123084396
176	0xbdb51a13	-0.08842864
177	0xbc97524c	-0.01847186
178	0x3c9d62c0	0.019212127
179	0xbe0273b4	-0.1273945
180	0x3ddd67b0	0.108107924
181	0xbdab5152	-0.0836512
182	0xbdcd44a6	-0.10022859
183	0x3d2cc5fd	0.042181004
184	0x3da0a1e6	0.0784338
185	0x3db5ff72	0.08886613
186	0x3c4f0f5d	0.01263794
187	0xbd8d081d	-0.06886313
188	0x3d9f9589	0.077921934
189	0xbd9c4399	-0.07630081
190	0xbccd53aa	-0.025064308
191	0xbd37e53e	-0.044896357
192	0x3dee690c	0.1164113
193	0x3da73cd6	0.081659004
194	0xbdb47f72	-0.08813371
195	0x3cc69ec8	0.024245635
196	0xbdacc16e	-0.08435331
197	0x3d6d0d9c	0.057874307
198	0xbbdb7bab	-0.006698092
199	0x3c025f4d	0.007957292
200	0xbdb66d72	-0.08907594
201	0xbd995648	-0.0748716
202	0xbdf85172	-0.121249095
203	0x3df7218a	0.12066944
204	0x3d9e7380	0.077368736
205	0x3c4adbe9	0.012381532
206	0x3cec9683	0.028880363
207	0x3df77cdd	0.12084363
208	0xbdd23d1d	-0.10265563
209	0xbded931a	-0.11600323
210	0x3d2fe37c	0.042941555
211	0xbcddf925	-0.02709634
212	0x3df23bd6	0.11827819
213	0x3dd8a3f2	0.10578145
214	0x3d8f5cc0	0.070001125
215	0xbdc01682	-0.09379293
216	0xbdce96fa	-0.1008739
217	0xbd790108	-0.060792
218	0xbd8d2939	-0.06892628
219	0x3db86dfe	0.09005354
220	0x3c1605a2	0.009156616
221	0xbdc44981	-0.09584332
222	0xbc1fbad1	-0.00974913
223	0xbcc81d75	-0.024428109
224	0x3cef2b3b	0.029195419
225	0x3dbf4332	0.09338988
226	0xbc658c8b	-0.014010559
227	0x3d5b40a8	0.053528458
228	0x3dd53689	0.104107924
229	0xbdb6034f	-0.0888735
230	0xbdb1f8e4	-0.0869005
231	0x3b1b4d31	0.0023697133
232	0x3debfac8	0.11522442
233	0x3c16e73e	0.009210406
234	0x3dffa0ae	0.12481819
235	0x3d7be5f8	0.061498612
236	0x3d78cb13	0.06074054
237	0x3c8f0c32	0.01746187
238	0xbd515a79	-0.051111672
239	0x3d8117cf	0.06303369
240	0x3daa967e	0.08329485
241	0xbdab863e	-0.08375214
242	0x3db4472e	0.08802639
243	0xbd85ee8c	-0.0653964
244	0xbddf786e	-0.10911642
245	0x3dca3f6e	0.098753795
246	0xbd600060	-0.054687858
247	0x3c1db1aa	0.009624878
248	0x3da03654	0.07822862
249	0x3c416309	0.011803397
250	0x3c1830a4	0.009288941
251	0xbbefd4f0	-0.0073190853
252	0xbd3c80d2	-0.04602129
253	0x3df3e7d1	0.1190945
254	0x3de83774	0.11338702
255	0xbdc4713e	-0.09591912

shared.2.bias f4 [64]
0	0x3b779b56	0.0037781796
1	0xbb86d6c8	-0.0041149594
2	0x3dc632c1	0.09677649
3	0xbdac4111	-0.08410848
4	0x3d11a073	0.035553407
5	0x3dd31c95	0.10308186
6	0xbde42143	-0.11139157
7	0x3db76a97	0.08955877
8	0x3d62f035	0.05540486
9	0x3cfdcf86	0.030982744
10	0xbd42e6e2	-0.04758347
11	0xbdb1845c	-0.08667824
12	0x3db7c9d0	0.089740396
13	0x3d924564	0.071421415
14	0xbcca62f4	-0.024705388
15	0xbded3236	-0.115818426
16	0x3ca9f87f	0.020748375
17	0x3c96255f	0.018328367
18	0xbdfade17	-0.122493915
19	0x3d819351	0.063269265
20	0x3d763171	0.060105745
21	0xbd4f117f	-0.050553795
22	0x3c40c79f	0.011766343
23	0xbd099a06	-0.033594154
24	0x3dcbd1b0	0.09952104
25	0xbdd273e6	-0.10276012
26	0xbdd90870	-0.105973125
27	0x3d0c610e	0.034272246
28	0x3db4a84c	0.088211626
29	0xbd354ea9	-0.04426447
30	0xbc48ca24	-0.012255225
31	0x3c215fd5	0.009849508
32	0xbc92ded7	-0.017928524
33	0x3c8e298f	0.017353801
34	0xbda9960e	-0.08280574
35	0xbbb0865a	-0.0053871097
36	0x3ce93495	0.028467456
37	0x3c782377	0.015145174
38	0x3bb8249e	0.0056195995
39	0xbb0854ce	-0.00208025
40	0xbda97782	-0.082747474
41	0x3d51cec2	0.05122257
42	0xbdefcb60	-0.117087126
43	0xbdad0fea	-0.08450301
44	0xbd819cd7	-0.06328743
45	0x3d5d554d	0.054036427
46	0x3cc98974	0.024601676
47	0xbd71dcb1	-0.05904836
48	0xbd45f025	-0.048324723
49	0xbd44a049	-0.048004422
50	0x3df20ba1	0.11818624
51	0x3dbd2ec3	0.09237435
52	0xbda5047b	-0.08057495
53	0x3cce5aa0	0.025189698
54	0x3d759099	0.059952352
55	0xbd09d5a0	-0.033650994
56	0x3cb3ddf8	0.021956429
57	0xbdfb94ff	-0.12284278
58	0xbdbeb5eb	-0.09312042
59	0xbdd7a72a	-0.10529931
60	0xbd5910a9	-0.052994404
61	0xbcc9d680	-0.024638414
62	0xbd47d4ef	-0.048787054
63	0x3dbaf324	0.09128407

actor.0.weight f4 [5, 64]
0	0x3dab54df	0.08365797
1	0x3d939a63	0.07207181
2	0x3dde759f	0.10862278
3	0xbdcf1320	-0.1011107
4	0x3d15e0d6	0.036591373
5	0xba3d4328	-0.0007219785
6	0xbda608e3	-0.08107164
7	0xbd0f13ac	-0.03493087
8	0xbda90827	-0.08253508
9	0x3d86d066	0.065827176
10	0x3dcc1510	0.09964955
11	0x3deb6da0	0.11495519
12	0x3ab471d6	0.0013766836
13	0x3c9a20d5	0.018814484
14	0x3c17502f	0.009235426
15	0xbde57f6b	-0.11205944
16	0xbdc6c3c3	-0.09705307
17	0x3a398e98	0.0007078438
18	0x3d26bedd	0.040709365
19	0xbd578e0e	-0.05262571
20	0xbde62a5a	-0.11238547
21	0xbdbe1108	-0.09280592
22	0x3d4ef703	0.050528537
23	0x3da8a58c	0.082347006
24	0x3d4ab049	0.049484525
25	0xbc6f4fc0	-0.014606416
26	0x3b67550a	0.003529849
27	0x3dfa296f	0.12214934
28	0x3dd890e1	0.105745085
29	0x3da44f2d	0.08022914
30	0x3d9c5887	0.07634073
31	0xbd9d2c67	-0.07674485
32	0x3dd751f0	0.10513675
33	0xbc16f1ed	-0.009212953
34	0x3c2aaf10	0.010417715
35	0xbde32e94	-0.110928684
36	0xbc5163ed	-0.012780172
37	0xbcb130c6	-0.021629702
38	0x3d33e232	0.04391689
39	0x3dbe4e45	0.092922725
40	0x3daef46e	0.08542715
41	0xbddf1f0c	-0.108945936
42	0x3db2d7e0	0.08732581
43	0x3d73a79f	0.059486028
44	0xbd7a15fd	-0.061056126
45	0xbe082d46	-0.1329852
46	0xbe056f46	-0.13030729
47	0x3d91119c	0.07083437
48	0xbdc63ce6	-0.09679584
49	0xbc90b567	-0.017664624
50	0xbdf53045	-0.11972097
51	0xbc9a06b2	-0.01880202
52	0x3dbd0f51	0.09231437
53	0x3deb82ec	0.11499581
54	0x3c39035f	0.011292308
55	0x3c90f980	0.017697096
56	0xbdcc5976	-0.09978001
57	0xbd1b92e8	-0.037981898
58	0xbcc60d70	-0.02417633
59	0xbdb32468	-0.08747178
60	0x3ccf2e41	0.02529061
61	0xbdc0a506	-0.09406476
62	0xbd256700	-0.04038143
63	0x3d7b9878	0.061424702
64	0xbd9f2cee	-0.077722415
65	0xbdca7a1e	-0.09886573
66	0xbc272ea1	-0.010203988
67	0xbdbbe26b	-0.09174045
68	0xbca8114f	-0.020516066
69	0x3dd6a773	0.10481157
70	0xbdde6736	-0.1085953
71	0xbda3dde0	-0.08001304
72	0x3ded84b3	0.11597576
73	0xbdb04354	-0.08606592
74	0x3c73b754	0.014875252
75	0x3d2f8290	0.042849123
76	0x3de54f50	0.11196768
77	0xbba3610a	-0.004985933
78	0xbbcb54e7	-0.0062051895
79	0xbd566d9c	-0.052350625
80	0x3d637b55	0.05553754
81	0x3ad77f6c	0.0016441173
82	0xbd5d421a	-0.054018117
83	0xbc2866f0	-0.010278448
84	0x3d0bfc3c	0.034176096
85	0xbd67c506	-0.05658438
86	0xbd428399	-0.047488783
87	0xbdbf1764	-0.09330633
88	0x3d9fd926	0.0780509
89	0x3df21920	0.118211985
90	0x3decea95	0.115681805
91	0x3d63cd79	0.055615876
92	0xbdaaeaf7	-0.08345597
93	0xbd980528	-0.074228585
94	0xbd15f7ba	-0.036613204
95	0xbc0c3294	-0.008556981
96	0xbdd2da04	-0.102954894
97	0x3c93c8f0	0.01804015
98	0x3d9ec934	0.0775322
99	0x3c796dbc	0.015223917
100	0x3c903a1a	0.01760583
101	0xbd69baaa	-0.057062782
102	0x3b2b479a	0.0026135207
103	0xbdf24eb7	-0.1183142
104	0x3dfc4c7c	0.12319276
105	0x39fb70be	0.0004795845
106	0x3dda55f2	0.10660924
107	0x3e0034e7	0.1252018
108	0x3d7f3285	0.06230404
109	0xbb9b4615	-0.004738579
110	0xbda7baa6	-0.08189897
111	0xbd1f20c7	-0.03884962
112	0xbd31eb53	-0.043437313
113	0xbdb38573	-0.08765688
114	0x3dc9d66c	0.09855351
115	0x3cccf60f	0.025019674
116	0x3d0f8e0d	0.03504758
117	0x3d98cdff	0.07461166
118	0xbdabfd42	-0.083979145
119	0x3d94ddae	0.072688445
120	0x3b5d843b	0.003380074
121	0xbcf6caf7	-0.030126078
122	0x3d7ae94f	0.061257657
123	0xbd29ee71	-0.04148716
124	0x3d6e1bc9	0.058131967
125	0x3dc67aeb	0.096914135
126	0xbdd52e33	-0.104092024
127	0x3cb1b531	0.021692844
128	0xbd9340f7	-0.071901254
129	0x3dd847b9	0.10560555
130	0xbdb233ec	-0.087013096
131	0xbd2fb498	-0.042896837
132	0x3dcae3ce	0.099067315
133	0xbd924f3a	-0.071440175
134	0xbdad9d22	-0.08477236
135	0xbb88b1b5	-0.004171575
136	0xbc95e495	-0.018297473
137	0xbda6701f	-0.08126854
138	0x3da845b3	0.08216419
139	0xbdea7966	-0.11448936
140	0xbc83727b	-0.0160458
141	0xbcbba33a	-0.02290498
142	0xbd9147cc	-0.07093772
143	0xbd55a7c5	-0.05216195
144	0x3da3f137	0.080049925
145	0x3dc38086	0.09545998
146	0xbc58e6e9	-0.013238647
147	0xbd933d5f	-0.0718944
148	0xbd1f1402	-0.03883744
149	0x3db983d4	0.09058347
150	0x3d4135da	0.047170497
151	0xbdb9577a	-0.09049888
152	0x3d83ffb9	0.064452596
153	0x3d08542c	0.033283398
154	0x3d910e97	0.07082861
155	0x3b318adf	0.002709083
156	0x3cf1c02d	0.029510582
157	0xbcfcf6b4	-0.030879356
158	0x3cb0005e	0.02148455
159	0xbdb228cd	-0.086991884
160	0x3dcfbbae	0.10143219
161	0x3df6227c	0.12018296
162	0xbd90a134	-0.07061997
163	0x3d888bb6	0.06667273
164	0xbdebef9a	-0.1152031
165	0xbd58d2fe	-0.052935593
166	0xbc12d7eb	-0.008962612
167	0x3dc966ec	0.09834084
168	0xbcfc9750	-0.03083387
169	0x3dd4a794	0.103835255
170	0x3dc3809b	0.09546014
171	0x3dd9b423	0.106300615
172	0x3ceaf141	0.028679492
173	0xbb50d6de	-0.0031866352
174	0xbccdafb3	-0.025108194
175	0x3d85aa02	0.06526567
176	0xbd6fb6f2	-0.05852408
177	0x3da9a495	0.08283345
178	0xbbbcbed4	-0.005760053
179	0x3d6707ab	0.056403797
180	0xbd3b7024	-0.045761243
181	0xbdcb1803	-0.09916689
182	0x3db80df3	0.089870356
183	0x3dcd84ae	0.10035072
184	0x3df1900e	0.117950544
185	0x3d746769	0.059668932
186	0xbdc2c8d6	-0.09510963
187	0x3df21ac2	0.1182151
188	0xbdedfd21	-0.11620546
189	0xbdf7d5f3	-0.121013544
190	0xbde9bce3	-0.114129804
191	0x3df8343e	0.121193394
192	0x3d2c9eed	0.04214375
193	0x3d35c87e	0.044380657
194	0xbdeb9bb3	-0.11504307
195	0x3d991d2d	0.07476268
196	0x3d8bce48	0.068264544
197	0xbdbf70e8	-0.09347707
198	0x3df0ae73	0.117520235
199	0x3ca40ae4	0.020024724
200	0x3dd072ab	0.10178121
201	0xbdbee778	-0.09321493
202	0x3c6e08e2	0.014528485
203	0xbd43ed08	-0.047833472
204	0x3d532046	0.05154445
205	0xbd460e7f	-0.04835367
206	0x3c835895	0.01603345
207	0x3da30d1a	0.07961483
208	0xbd2f7f5c	-0.04284607
209	0xbce87e61	-0.028380575
210	0x3d7a17e1	0.06105793
211	0xbd97776c	-0.07395825
212	0x3c7fb126	0.0156062
213	0x3dee04e4	0.116220266
214	0x3d905fcf	0.07049524
215	0x3df35414	0.11881271
216	0xbd2da5a3	-0.04239429
217	0x3c547920	0.012968332
218	0xbddd8c49	-0.10817773
219	0xbdc8b4c0	-0.098001
220	0xbdea54be	-0.114419445
221	0x3de4ee57	0.11178272
222	0x3c8993df	0.016794143
223	0x3dc2084c	0.09474239
224	0x3def948d	0.11698256
225	0x3c9510c3	0.01819647
226	0xbdd86722	-0.10566546
227	0x3c4a87d6	0.012361487
228	0x3e028e0e	0.12749502
229	0xbde8894b	-0.113543116
230	0xbcdc6d91	-0.026907714
231	0xbdb8ddbe	-0.09026669
232	0x3dea008e	0.11425887
233	0xbd077740	-0.03307271
234	0xbddde2e0	-0.108342886
235	0x3de5538d	0.11197577
236	0xbc9deb21	-0.019277157
237	0xbca48742	-0.020084027
238	0xbdd992a2	-0.10623671
239	0xbd6f406f	-0.058411058
240	0xbd9334b6	-0.07187788
241	0xbc5f89f1	-0.013643728
242	0xbca48513	-0.020082986
243	0x3e00b953	0.12570696
244	0x3c16ebd2	0.009211497
245	0xbd5c82b1	-0.053835575
246	0x3e03bee5	0.12865789
247	0xbde9361c	-0.11387274
248	0x3d1930e8	0.037400156
249	0xbc973125	-0.018456051
250	0x3d5023f3	0.050815534
251	0x3ce58a96	0.028020184
252	0x3bac2a3c	0.005254058
253	0xbd8b728f	-0.0680896
254	0xbdb38faf	-0.0876764
255	0xbd6e6f99	-0.058211897

actor.0.bias f4 [5]
0	0x3c877692	0.01653603
1	0xbdf3b8d6	-0.11900489
2	0x3df39952	0.11894478
3	0x3da91b5b	0.08257171
4	0x3cd428ea	0.025898416

critic.0.weight f4 [1, 64]
0	0xbdd74b39	-0.105123945
1	0xbd1109f5	-0.035409886
2	0x3df6f9b9	0.120593496
3	0x3de240db	0.110475264
4	0xbdc9d97e	-0.098559365
5	0xbdb9c8a6	-0.09071474
6	0x3d24638f	0.04013401
7	0xbd9563a4	-0.072943956
8	0xbd4827b5	-0.048865993
9	0x3df85ec3	0.12127449
10	0x3d5934f2	0.05302901
11	0xbdc5c7b4	-0.09657231
12	0x3dbe6a98	0.09297675
13	0x3dae6a93	0.08516421
14	0x3dc3b56b	0.09556087
15	0x3da5b83a	0.08091779
16	0xbd1efd6f	-0.03881591
17	0x3ddb4b84	0.10707763
18	0xbbaa6cb4	-0.0052009467
19	0x3e02637b	0.12733261
20	0xbd9cec6c	-0.076622814
21	0xbddaeec3	-0.106900714
22	0xbc95fc93	-0.018308913
23	0xbd16a7af	-0.03678101
24	0x3d6ddcff	0.058072086
25	0x3d321024	0.043472424
26	0x3d893037	0.066986494
27	0xbd7afc98	-0.06127605
28	0xbdb01e17	-0.08599489
29	0xbc7a81ca	-0.015289733
30	0x3d87002c	0.0659183
31	0x3ddc9105	0.10769848
32	0x3cf74e88	0.030188814
33	0x3ddb2c03	0.10701754
34	0x3cd7f6d0	0.026362807
35	0xbdcb0fe9	-0.09915144
36	0xbb23081b	-0.0024876657
37	0xbdeb3772	-0.11485185
38	0xbd56aa6e	-0.05240863
39	0xbdb9ed78	-0.09078497
40	0x3d81d216	0.06338899
41	0x3b4fa072	0.0031681326
42	0xbdaeb603	-0.0853081
43	0xbd7f46f6	-0.062323533
44	0xbc90ed8d	-0.017691398
45	0x3d283398	0.04106483
46	0x3dbf476d	0.09339795
47	0xbbe58c7f	-0.007005274
48	0xbbcbc905	-0.0062190318
49	0x3b4e42d3	0.0031472936
50	0xbdb858c6	-0.09001307
51	0xbd7b3e40	-0.061338663
52	0xbd863d6d	-0.06554685
53	0xbd3d1d2a	-0.04617039
54	0x3dfa87cc	0.122329324
55	0xbdf4c94c	-0.11952457
56	0xbdab3839	-0.08360333
57	0xbca7a18e	-0.020462777
58	0xbd93dbc6	-0.07219653
59	0x3d8f87bd	0.07008312
60	0x3d5e1ef9	0.054228757
61	0x3dfbcfb0	0.122954726
62	0x3dff469c	0.124646395
63	0xbbf99e65	-0.007617759

exp_avg f4 [64, 10]
0	0x39411826	0.0001841491
1	0x3a83d6b3	0.0010058492
2	0x3a7192e9	0.0009215312
3	0xb8d08bbb	-9.94424e-05
4	0x39c23dc8	0.00037048594
5	0x38afc7d9	8.381875e-05
6	0xb980cc5f	-0.0002456633
7	0x37b85a43	2.197654e-05
8	0x3a7b154b	0.0009578063
9	0x39136f4d	0.00014060475
10	0x372e7702	1.0398917e-05
11	0x37c661c0	2.3648958e-05
12	0x38695d6f	5.5638546e-05
13	0x3894cb84	7.095098e-05
14	0xb70539d6	-7.940884e-06
15	0x389db449	7.519924e-05
16	0x38161f03	3.579167e-05
17	0x38cfc9ed	9.908141e-05
18	0x3867a77f	5.5230685e-05
19	0x38468e9c	4.7339694e-05
20	0x00000000	0.0
21	0x00000000	0.0
22	0x00000000	0.0
23	0x00000000	0.0
24	0x00000000	0.0
25	0x00000000	0.0
26	0x00000000	0.0
27	0x00000000	0.0
28	0x00000000	0.0
29	0x00000000	0.0
30	0x39dc6386	0.0004203582
31	0x383ee777	4.55151e-05
32	0x3a15e2c5	0.000571769
33	0x390dcf11	0.00013523946
34	0x3947109b	0.00018984305
35	0x39cfef3b	0.00039660357
36	0x393d253e	0.00018038318
37	0x39ae4319	0.00033237858
38	0x39e11dfc	0.00042937684
39	0x3a0c92a3	0.0005362427
40	0x3a22bf16	0.00062082836
41	0x3a8b0386	0.0010605908
42	0x3a96a454	0.0011493065
43	0x3a8ad19c	0.0010591033
44	0x3a8f3494	0.0010925704
45	0x3a2d2c6b	0.0006606045
46	0xb9155aeb	-0.00014243617
47	0x39845a00	0.00025244057
48	0x3a91ad00	0.001111418
49	0x3a2bfa44	0.0006560425
50	0x39bac874	0.00035626034
51	0xba1c66cd	-0.0005966246
52	0xb9b8bf77	-0.00035237867
53	0x38b2aaef	8.51954e-05
54	0xba48e5d1	-0.000766364
55	0x392eacb3	0.00016658269
56	0x3a5cead9	0.0008427329
57	0xb91251d1	-0.00013954124
58	0xb8aa9ea3	-8.13578e-05
59	0x38efaaed	0.000114282455
60	0xba882b37	-0.0010388856
61	0xba90b5a9	-0.0011040467
62	0xba2cbc2c	-0.0006589319
63	0xba87ade4	-0.0010351506
64	0xba9aafdd	-0.0011801679
65	0xba303cc3	-0.00067229214
66	0xb998e1d0	-0.00029159943
67	0xba08d0ea	-0.0005219119
68	0xba56fd03	-0.0008201154
69	0xb9937a8d	-0.00028129332
70	0x388a75a5	6.602266e-05
71	0x3a49fdd4	0.0007705365
72	0x3920d4be	0.00015338042
73	0x3a3baa34	0.0007158846
74	0x3a19191c	0.00058402284
75	0x39899852	0.00026244164
76	0x3a1482f0	0.0005665263
77	0x39cd412c	0.00039149204
78	0x3a289fac	0.00064324844
79	0x395f01f2	0.00021267662
80	0x398cace6	0.000268317
81	0x3a4999a4	0.0007690436
82	0x38c02e0c	9.16385e-05
83	0x3a5563c7	0.0008140173
84	0x39ec36cc	0.00045054255
85	0x395a5494	0.00020821608
86	0xb821120d	-3.8402202e-05
87	0xb93b52f7	-0.00017864617
88	0x39d5aa85	0.00040753573
89	0xb94f2f15	-0.00019758598
90	0x399ee09f	0.00030303464
91	0x3a468731	0.00075732457
92	0x39cd646f	0.00039175476
93	0x3a73d4fe	0.00093014527
94	0x3a2d5af1	0.00066129776
95	0x39f4f2c6	0.00046720187
96	0x3979ace7	0.00023810902
97	0x39d190fd	0.0003997161
98	0x39df4611	0.00042586078
99	0x3a05b685	0.0005100745
100	0x00000000	0.0
101	0x00000000	0.0
102	0x00000000	0.0
103	0x00000000	0.0
104	0x00000000	0.0
105	0x00000000	0.0
106	0x00000000	0.0
107	0x00000000	0.0
108	0x00000000	0.0
109	0x00000000	0.0
110	0x393ad683	0.00017818254
111	0x3972b69d	0.00023146947
112	0x397717d4	0.00023564632
113	0x38222194	3.8655082e-05
114	0x38dc4a74	0.000105042855
115	0x38701137	5.723649e-05
116	0xb7f8100f	-2.9571382e-05
117	0x38978cda	7.226477e-05
118	0x3990029c	0.00027467764
119	0x391070ff	0.00013775004
120	0xb717dd59	-9.051838e-06
121	0xb68c4b2a	-4.1810754e-06
122	0xb7111d5e	-8.649511e-06
123	0xb69d7edb	-4.6937325e-06
124	0x3678bdb3	3.70653e-06
125	0x34edc9ce	4.4291522e-07
126	0xb5d515d1	-1.5876086e-06
127	0xb6b0d419	-5.2699e-06
128	0xb6d21a76	-6.261568e-06
129	0xb5b9ae5f	-1.3834323e-06
130	0xb8e9d79b	-0.000111504654
131	0xb9d298ce	-0.0004016817
132	0xb93fe546	-0.0001830059
133	0xb9b5dcad	-0.00034687427
134	0xba1b7869	-0.0005930723
135	0xb8cf54d7	-9.886332e-05
136	0x39ea4790	0.00044685276
137	0x39488ff5	0.00019127115
138	0xb9bcc674	-0.00036006013
139	0xb8301e45	-4.198986e-05
140	0x398cb923	0.00026840818
141	0x3a43a54e	0.0007463292
142	0x39ac784d	0.00032896028
143	0x39ed5d44	0.0004527365
144	0x3a0c49fa	0.00053515995
145	0x3863abc9	5.4281005e-05
146	0xba5a9a1c	-0.0008339004
147	0xb92afff9	-0.0001630782
148	0x3a1bedfb	0.00059482426
149	0x3a2c892a	0.00065817183
150	0x384fae41	4.9514932e-05
151	0xb8992c3a	-7.303846e-05
152	0xb81f7aa2	-3.8022765e-05
153	0x385cbe25	5.2629173e-05
154	0x3897f3fa	7.245685e-05
155	0x38f5fbfd	0.00011729447
156	0x3863270b	5.415738e-05
157	0x3902520f	0.00012428335
158	0xb606b599	-2.007326e-06
159	0x3811fdb7	3.4806984e-05
160	0x3a20384a	0.00061119033
161	0x39b3b548	0.00034276606
162	0x3a695ae8	0.0008901791
163	0x39eee72d	0.00045567137
164	0x3a57294c	0.0008207753
165	0x39c99d4a	0.00038454897
166	0x3a372c33	0.0006987482
167	0x39778633	0.00023605749
168	0x39ed4135	0.00045252746
169	0x3a0ab55f	0.00052913086
170	0x38018f3b	3.088939e-05
171	0xb913f4a0	-0.00014110142
172	0xb94abd46	-0.00019334731
173	0xb9b3ad49	-0.00034270648
174	0xba0b8e8a	-0.0005323669
175	0x386c2e9b	5.631019e-05
176	0xb94927f1	-0.00019183733
177	0x388d9b97	6.752385e-05
178	0xb9e62e85	-0.00043903678
179	0xb984b29e	-0.00025310082
180	0xb7152451	-8.889548e-06
181	0xb7d94b80	-2.5903573e-05
182	0x37f360d8	2.9012954e-05
183	0xb8827f8d	-6.222641e-05
184	0x34735430	2.2661766e-07
185	0x36eddf24	7.0891274e-06
186	0xb8507492	-4.969963e-05
187	0xb8a57b41	-7.890771e-05
188	0xb75d8ec5	-1.3205868e-05
189	0xb89030a6	-6.8755166e-05
190	0xb942170b	-0.00018509866
191	0xb80ed61f	-3.4054854e-05
192	0xb8bdc72f	-9.049323e-05
193	0xb8b10204	-8.440393e-05
194	0xb90a174f	-0.00013169389
195	0x3884e2be	6.3364845e-05
196	0xb84b0cb5	-4.8410806e-05
197	0xb8282557	-4.0089097e-05
198	0x37a63628	1.981396e-05
199	0xb845be60	-4.714576e-05
200	0xb92cb347	-0.00016469984
201	0xb9da3bbe	-0.00041624712
202	0x3919744f	0.00014634545
203	0xb9af5c99	-0.00033447592
204	0xb9c74e41	-0.00038014541
205	0xb97a076b	-0.00023844621
206	0x3934eba7	0.00017253925
207	0x385e158b	5.2948988e-05
208	0x3593d45c	1.1014158e-06
209	0xb917784f	-0.000144453
210	0x39b241f7	0.00033999953
211	0x3a61da2e	0.000861558
212	0x3a35af30	0.0006930707
213	0x399df86f	0.0003013047
214	0x39bac931	0.00035626584
215	0x39015f2e	0.00012337856
216	0xba2ac4e4	-0.00065143243
217	0x39882139	0.00025964694
218	0x3a1b0ac5	0.00059143855
219	0x3a08354c	0.000519593
220	0x00000000	0.0
221	0x00000000	0.0
222	0x00000000	0.0
223	0x00000000	0.0
224	0x00000000	0.0
225	0x00000000	0.0
226	0x00000000	0.0
227	0x00000000	0.0
228	0x00000000	0.0
229	0x00000000	0.0
230	0xb9aa4478	-0.0003247594
231	0xb9dc7286	-0.00042046997
232	0x379788c7	1.8064295e-05
233	0x385bb818	5.238512e-05
234	0xb84a1717	-4.8182057e-05
235	0x3a2aa1be	0.0006509087
236	0x379eb88c	1.8921004e-05
237	0xb960d1e7	-0.000214405
238	0x38a91ad1	8.063543e-05
239	0xba128c1e	-0.0005590337
240	0x39885fde	0.00026011368
241	0x3a140f80	0.00056480616
242	0x3a1d7b1c	0.00060074194
243	0x3a4e63c7	0.00078731444
244	0x3a29f37a	0.0006483119
245	0x39e0a4cf	0.000428474
246	0xb9ffe6af	-0.00048809263
247	0xb6b0dbba	-5.2707883e-06
248	0x3a1cb859	0.00059783977
249	0x3a4056d4	0.0007337157
250	0xb8a3e896	-7.815768e-05
251	0xb9fbdc59	-0.00048038622
252	0xb939b196	-0.00017709131
253	0xb997d7d0	-0.00028961757
254	0xba5e6edc	-0.0008485147
255	0xb83db3b4	-4.5228473e-05

exp_avg_sq f4 [64, 10]
0	0x33e29cd9	1.05524755e-07
1	0x341a3cb0	1.4364446e-07
2	0x34350d63	1.6861809e-07
3	0x343d9b5a	1.7658513e-07
4	0x344511e9	1.835357e-07
5	0x34904016	2.686872e-07
6	0x3407cf30	1.2648229e-07
7	0x33fd7b19	1.1803622e-07
8	0x3434be01	1.683293e-07
9	0x345a1aa6	2.0312527e-07
10	0x31d9a952	6.3347807e-09
11	0x310a7ac6	2.0151432e-09
12	0x31fab0e5	7.296068e-09
13	0x319e201b	4.602055e-09
14	0x30e2805d	1.6480147e-09
15	0x31f2831d	7.058033e-09
16	0x30bd8905	1.3790503e-09
17	0x3239fec7	1.0826347e-08
18	0x31f555f5	7.1402106e-09
19	0x30f456fc	1.7778059e-09
20	0x00000000	0.0
21	0x00000000	0.0
22	0x00000000	0.0
23	0x00000000	0.0
24	0x00000000	0.0
25	0x00000000	0.0
26	0x00000000	0.0
27	0x00000000	0.0
28	0x00000000	0.0
29	0x00000000	0.0
30	0x338caf6b	6.5511664e-08
31	0x33d850ee	1.0073005e-07
32	0x34079d54	1.263009e-07
33	0x338ed520	6.6511575e-08
34	0x33dd8b07	1.03164034e-07
35	0x345639e8	1.9951369e-07
36	0x33cc4e29	9.5137075e-08
37	0x33924869	6.811826e-08
38	0x33f818f6	1.155294e-07
39	0x3408ff34	1.275883e-07
40	0x34afd199	3.2748792e-07
41	0x3491a962	2.7131597e-07
42	0x34607e3f	2.0907554e-07
43	0x34412645	1.7988448e-07
44	0x34811523	2.40435e-07
45	0x34898fae	2.562278e-07
46	0x345b3500	2.0415246e-07
47	0x3430ce92	1.6466427e-07
48	0x349259df	2.726001e-07
49	0x3497ea89	2.8296589e-07
50	0x349f330d	2.9653202e-07
51	0x343c5ef4	1.7543408e-07
52	0x342b77c4	1.5969187e-07
53	0x343f096c	1.7791689e-07
54	0x33f03f23	1.11873554e-07
55	0x33d3a112	9.854752e-08
56	0x341d6a0e	1.4660347e-07
57	0x34151654	1.3884829e-07
58	0x3472e1dd	2.2620175e-07
59	0x346010f1	2.0867789e-07
60	0x34450bd8	1.8351363e-07
61	0x3447d1b0	1.8609603e-07
62	0x34532bd0	1.9666845e-07
63	0x343a080a	1.7325524e-07
64	0x3400ba65	1.1988739e-07
65	0x3485d921	2.4931163e-07
66	0x342a3d22	1.5854724e-07
67	0x339ff051	7.447728e-08
68	0x3440aebc	1.7944961e-07
69	0x34176f75	1.4103519e-07
70	0x33befb35	8.893259e-08
71	0x33bfc46d	8.92986e-08
72	0x33f98c6a	1.1620507e-07
73	0x33fedbeb	1.18677995e-07
74	0x33a91fb9	7.875446e-08
75	0x340e3a99	1.3246098e-07
76	0x33e8033b	1.08039295e-07
77	0x33c8f274	9.357328e-08
78	0x33f015d5	1.1179842e-07
79	0x33b5c10d	8.463585e-08
80	0x3342cb6d	4.535416e-08
81	0x3399cfc2	7.1624086e-08
82	0x339c8b27	7.289628e-08
83	0x3429f96a	1.5830088e-07
84	0x334c6532	4.7589488e-08
85	0x33b4f652	8.4267086e-08
86	0x33864d36	6.253906e-08
87	0x33a92135	7.875716e-08
88	0x338635af	6.249626e-08
89	0x3376f4fd	5.7499154e-08
90	0x33099b9a	3.2039317e-08
91	0x334b1e42	4.729214e-08
92	0x33fd7315	1.1802164e-07
93	0x33d335cc	9.835239e-08
94	0x33c156ab	9.003028e-08
95	0x33002ae4	2.984133e-08
96	0x330e6398	3.315253e-08
97	0x32f35773	2.832869e-08
98	0x3354a252	4.9507726e-08
99	0x33eef95c	1.1128097e-07
100	0x00000000	0.0
101	0x00000000	0.0
102	0x00000000	0.0
103	0x00000000	0.0
104	0x00000000	0.0
105	0x00000000	0.0
106	0x00000000	0.0
107	0x00000000	0.0
108	0x00000000	0.0
109	0x00000000	0.0
110	0x33e2d80e	1.0563245e-07
111	0x33a29873	7.571443e-08
112	0x3374850d	5.6931686e-08
113	0x339969e4	7.143879e-08
114	0x33bb1dce	8.7132875e-08
115	0x333a22f4	4.333829e-08
116	0x33a8c79e	7.85942e-08
117	0x33a17e90	7.520168e-08
118	0x332c7caf	4.016027e-08
119	0x338b03fe	6.473418e-08
120	0x306e17dd	8.661781e-10
121	0x2f0c21d1	1.274494e-10
122	0x30543826	7.720494e-10
123	0x2f5fe501	2.036309e-10
124	0x2efef851	1.15946926e-10
125	0x2d24aaa8	9.360214e-12
126	0x3046e12d	7.2351974e-10
127	0x2ef896b6	1.1304506e-10
128	0x2f24f497	1.5002609e-10
129	0x2d83b685	1.497403e-11
130	0x3353e696	4.9336982e-08
131	0x336e558f	5.549151e-08
132	0x3366d148	5.374139e-08
133	0x335bc5b9	5.116974e-08
134	0x337e14ee	5.915802e-08
135	0x338ef569	6.65703e-08
136	0x33a13135	7.5060974e-08
137	0x338a30e7	6.435021e-08
138	0x33e356d1	1.0586303e-07
139	0x33a1e4d8	7.538773e-08
140	0x34634a03	2.1167948e-07
141	0x34286d1e	1.5685916e-07
142	0x34025969	1.213972e-07
143	0x3429f80f	1.5829595e-07
144	0x342202ba	1.5088418e-07
145	0x345c15b2	2.049699e-07
146	0x34024c39	1.2134923e-07
147	0x3431f186	1.6572275e-07
148	0x34965863	2.8003987e-07
149	0x346ed345	2.2242337e-07
150	0x30d6a953	1.5618674e-09
151	0x31c8dd01	5.8458913e-09
152	0x31704f84	3.4969796e-09
153	0x3200804e	7.479754e-09
154	0x3214e601	8.667031e-09
155	0x321cff31	9.138419e-09
156	0x31a75ef4	4.8711346e-09
157	0x30ef15b5	1.7395708e-09
158	0x2f24c64c	1.4986162e-10
159	0x302ae02c	6.2164207e-10
160	0x33b28ef8	8.314777e-08
161	0x3287e2b6	1.5819165e-08
162	0x3379cb89	5.8159944e-08
163	0x32c2f5cf	2.2696353e-08
164	0x3394221d	6.897992e-08
165	0x32d32093	2.4578446e-08
166	0x3349ddfb	4.700085e-08
167	0x32a4ded4	1.9193443e-08
168	0x32b4e413	2.1058474e-08
169	0x332e0b67	4.0522902e-08
170	0x340b13d5	1.2952599e-07
171	0x3423c1c8	1.5251055e-07
172	0x33d1f43b	9.776746e-08
173	0x3401d3a3	1.2091054e-07
174	0x33c0d972	8.98025e-08
175	0x33966caf	7.004689e-08
176	0x33f84001	1.1560042e-07
177	0x33a50619	7.6845204e-08
178	0x3390cfcc	6.7433206e-08
179	0x33ebee8c	1.0986432e-07
180	0x2f045a77	1.203747e-10
181	0x2f4a77ec	1.8414398e-10
182	0x2efd06d2	1.15063195e-10
183	0x2fff6067	4.6452728e-10
184	0x2e1a1fd9	3.5043832e-11
185	0x2e7c71fa	5.7399398e-11
186	0x300754f3	4.9233434e-10
187	0x2f81d251	2.3614402e-10
188	0x2e0b9dff	3.174527e-11
189	0x307a7fd0	9.11311e-10
190	0x32cfb96a	2.4182288e-08
191	0x3194040a	4.307826e-09
192	0x32970396	1.7580344e-08
193	0x31bfd4a6	5.583007e-09
194	0x325ed555	1.2970607e-08
195	0x312602d1	2.415778e-09
196	0x32b6eb93	2.1294715e-08
197	0x31cba065	5.9263123e-09
198	0x3255a22d	1.2435106e-08
199	0x3288dc41	1.5932644e-08
200	0x3429ea87	1.5824672e-07
201	0x33eb9850	1.0970746e-07
202	0x33e831c9	1.0812398e-07
203	0x340d52a2	1.316171e-07
204	0x335dd3cc	5.16482e-08
205	0x3344c089	4.5809916e-08
206	0x33f0e3bf	1.1217298e-07
207	0x3399f4b9	7.1691325e-08
208	0x337fc677	5.9552317e-08
209	0x340a0373	1.2853506e-07
210	0x33d357f1	9.8414496e-08
211	0x33937902	6.867232e-08
212	0x33752118	5.7073606e-08
213	0x34057f31	1.2432862e-07
214	0x33bc83c1	8.778398e-08
215	0x341651f3	1.3999652e-07
216	0x337ac176	5.8383613e-08
217	0x33f63c6e	1.146626e-07
218	0x33bf72b2	8.9149935e-08
219	0x33bfebb5	8.9370054e-08
220	0x00000000	0.0
221	0x00000000	0.0
222	0x00000000	0.0
223	0x00000000	0.0
224	0x00000000	0.0
225	0x00000000	0.0
226	0x00000000	0.0
227	0x00000000	0.0
228	0x00000000	0.0
229	0x00000000	0.0
230	0x3454640d	1.9780437e-07
231	0x3425713c	1.5408017e-07
232	0x33bfc52f	8.929998e-08
233	0x3417f99b	1.4153777e-07
234	0x3421c33a	1.5065316e-07
235	0x341daa36	1.4683687e-07
236	0x32ec4f4e	2.751008e-08
237	0x33b2f45c	8.3332196e-08
238	0x33e57cb9	1.06863304e-07
239	0x340148ae	1.2040502e-07
240	0x345b1bfb	2.0406144e-07
241	0x348612a2	2.4973002e-07
242	0x348014d4	2.3857012e-07
243	0x3445047a	1.8348683e-07
244	0x344e794c	1.9229373e-07
245	0x3461e5e9	2.1038399e-07
246	0x3459f36f	2.029826e-07
247	0x343ebed8	1.7764557e-07
248	0x347388ac	2.268086e-07
249	0x3477176f	2.3012193e-07
250	0x3483b8df	2.4535163e-07
251	0x3432440a	1.6602294e-07
252	0x345a6372	2.033901e-07
253	0x3475872f	2.2866583e-07
254	0x33f28c09	1.12944754e-07
255	0x348d4f16	2.632084e-07

exp_avg f4 [64]
0	0x3a21a5e5	0.0006166383
1	0x38cb2c7c	9.68808e-05
2	0x00000000	0.0
3	0x3a1a5f98	0.00058888784
4	0x3ab4ca18	0.0013793139
5	0x393604c8	0.00017358654
6	0xbab36e8c	-0.0013689562
7	0x3a5cc1a5	0.0008421189
8	0x39c58fad	0.00037681815
9	0x3a868dee	0.0010265687
10	0x00000000	0.0
11	0x38ba767f	8.891243e-05
12	0xb723417a	-9.730802e-06
13	0xb88faf43	-6.8514164e-05
14	0x39951b29	0.0002843973
15	0x39005a1d	0.00012240601
16	0x3a8d128a	0.0010762971
17	0xb9e61078	-0.0004388129
18	0xb886d5fd	-6.429476e-05
19	0xb9177f7a	-0.00014447971
20	0xb933cce0	-0.00017147092
21	0x39c6423e	0.00037814857
22	0x00000000	0.0
23	0xb808c1fa	-3.260558e-05
24	0x3a466ab5	0.0007569001
25	0x38991d57	7.3010735e-05
26	0x39516f87	0.0001997334
27	0x3a01c6e1	0.0004950595
28	0x3a02c116	0.00049878785
29	0x38feda8e	0.00012152373
30	0x393d4b2a	0.00018052445
31	0xb96fced2	-0.00022869863
32	0xb9d91125	-0.0004140224
33	0x382ac2d9	4.0712624e-05
34	0x3aa24d26	0.0012382611
35	0xb994b33d	-0.00028362303
36	0xb886694a	-6.4092295e-05
37	0xba473c04	-0.00076001906
38	0xb419764c	-1.4292272e-07
39	0x388f42ba	6.8312e-05
40	0xb8b0c97a	-8.429862e-05
41	0xba4cd5b7	-0.00078138284
42	0x3903ede0	0.00012581749
43	0xb9127fc8	-0.00013971247
44	0x39511dbb	0.00019942869
45	0xb7c3bc14	-2.3333392e-05
46	0x39ad7c0b	0.0003308955
47	0x393a860f	0.00017788283
48	0x39880aee	0.00025948085
49	0x39f47f12	0.0004663398
50	0x3a06700d	0.0005128391
51	0xb9a30be7	-0.0003109865
52	0x00000000	0.0
53	0x00000000	0.0
54	0x3689f989	4.111968e-06
55	0xb9660ec1	-0.00021940006
56	0xba457f60	-0.0007533934
57	0x3a3bc069	0.0007162155
58	0x3769146b	1.3892636e-05
59	0x3a2b7ee9	0.00065420434
60	0x3927ebfc	0.00016014272
61	0xb938fb2a	-0.00017641173
62	0xb8d5dbbc	-0.0001019756
63	0x3a00cd45	0.00049134

exp_avg_sq f4 [64]
0	0x34cb6515	3.7885243e-07
1	0x32810e44	1.5024064e-08
2	0x00000000	0.0
3	0x34b82ab4	3.430374e-07
4	0x353333e5	6.675821e-07
5	0x3495e4e9	2.7919967e-07
6	0x34d43057	3.952325e-07
7	0x34a59a2f	3.0845828e-07
8	0x348a16ee	2.5721187e-07
9	0x3458d6be	2.019469e-07
10	0x00000000	0.0
11	0x34604692	2.0887299e-07
12	0x30a06835	1.167115e-09
13	0x340dbc92	1.320025e-07
14	0x34caa43a	3.7744923e-07
15	0x324e8dfe	1.2023063e-08
16	0x3419f715	1.4339123e-07
17	0x348e9b29	2.6562455e-07
18	0x30cc8849	1.4881688e-09
19	0x334b8e72	4.7394174e-08
20	0x34a438f1	3.058881e-07
21	0x344c3acb	1.9020369e-07
22	0x00000000	0.0
23	0x34bd401b	3.5250636e-07
24	0x351221c9	5.44384e-07
25	0x349c9fe7	2.917361e-07
26	0x341289a0	1.3647377e-07
27	0x3399f616	7.1693805e-08
28	0x339597d1	6.9659684e-08
29	0x31d472f5	6.183081e-09
30	0x3452dff5	1.9639249e-07
31	0x32a871ac	1.9609466e-08
32	0x33a43af6	7.64757e-08
33	0x33b3a620	8.365555e-08
34	0x34910a4c	2.7015847e-07
35	0x33396ad9	4.3170846e-08
36	0x3334b2c6	4.207211e-08
37	0x34a644af	3.0969883e-07
38	0x2e13ce2d	3.360705e-11
39	0x32d05734	2.4254042e-08
40	0x3560daf7	8.376514e-07
41	0x3496f4cc	2.811779e-07
42	0x3383f075	6.143902e-08
43	0x320ab6b4	8.074199e-09
44	0x33f5ed0a	1.1451819e-07
45	0x341c17e5	1.4537325e-07
46	0x3305e0a5	3.117079e-08
47	0x33dae6c9	1.01933956e-07
48	0x346b5bbd	2.1919455e-07
49	0x3420ae2a	1.4964522e-07
50	0x32f49986	2.8475153e-08
51	0x344b8545	1.8954331e-07
52	0x00000000	0.0
53	0x00000000	0.0
54	0x3347c1e1	4.650963e-08
55	0x343335b7	1.6690215e-07
56	0x356eb074	8.891868e-07
57	0x340ba64c	1.3005882e-07
58	0x344e81cc	1.9232465e-07
59	0x3516d3b0	5.61874e-07
60	0x32add222	2.0235408e-08
61	0x33d1554a	9.747835e-08
62	0x340ea202	1.3283719e-07
63	0x350b8829	5.1979674e-07

exp_avg f4 [64, 64]
0	0xb5e6ef9a	-1.7206069e-06
1	0x00000000	0.0
2	0x00000000	0.0
3	0x00000000	0.0
4	0xb689067c	-4.083673e-06
5	0x00000000	0.0
6	0x00000000	0.0
7	0xb503f155	-4.915249e-07
8	0x00000000	0.0
9	0x00000000	0.0
10	0x00000000	0.0
11	0xb2463e59	-1.1539293e-08
12	0x00000000	0.0
13	0xb65f16ac	-3.3242786e-06
14	0xb6d23fb4	-6.2659037e-06
15	0x00000000	0.0
16	0xb58d5e34	-1.0532735e-06
17	0xb6863f23	-4.0008613e-06
18	0x00000000	0.0
19	0x00000000	0.0
20	0x00000000	0.0
21	0xb690325a	-4.297396e-06
22	0x00000000	0.0
23	0xb693caa6	-4.404533e-06
24	0xb56e9d1a	-8.889052e-07
25	0xb49dc61e	-2.9387678e-07
26	0xb50dd456	-5.283558e-07
27	0xb6212e34	-2.4017763e-06
28	0xb67ca2fa	-3.764579e-06
29	0x00000000	0.0
30	0xb548fcd9	-7.487375e-07
31	0x00000000	0.0
32	0x00000000	0.0
33	0xb512c172	-5.467074e-07
34	0x00000000	0.0
35	0x00000000	0.0
36	0x00000000	0.0
37	0xb691a74f	-4.340814e-06
38	0x00000000	0.0
39	0x00000000	0.0
40	0xb6a7752b	-4.990628e-06
41	0xb64bae1a	-3.0350698e-06
42	0x00000000	0.0
43	0x00000000	0.0
44	0x00000000	0.0
45	0x00000000	0.0
46	0x00000000	0.0
47	0x00000000	0.0
48	0xb6c81c31	-5.9637464e-06
49	0x00000000	0.0
50	0x00000000	0.0
51	0xb443ccfe	-1.8235366e-07
52	0x00000000	0.0
53	0x00000000	0.0
54	0x00000000	0.0
55	0x00000000	0.0
56	0xb69344a5	-4.3889327e-06
57	0x00000000	0.0
58	0xb3a4b7a3	-7.6702484e-08
59	0xb6fc666d	-7.522109e-06
60	0x00000000	0.0
61	0xb6a5506d	-4.926746e-06
62	0xb5e39170	-1.6955146e-06
63	0xb65838d0	-3.2219577e-06
64	0x3a116f5a	0.0005547904
65	0x3866e62a	5.505063e-05
66	0x00000000	0.0
67	0x39a1c420	0.00030854438
68	0x3a3f0217	0.0007286383
69	0x3a86ac98	0.0010274826
70	0x389c0b89	7.440808e-05
71	0x3a54d977	0.0008119563
72	0x38818dc0	6.177602e-05
73	0xb89b5fef	-7.408845e-05
74	0x00000000	0.0
75	0xb89f4278	-7.5940916e-05
76	0x35eb9845	1.7553181e-06
77	0x3a9d2cd8	0.0011991514
78	0x3a45e195	0.0007548568
79	0x379ed755	1.893534e-05
80	0xb7037e51	-7.837619e-06
81	0x3a61fb05	0.00086204737
82	0xb6051064	-1.9828085e-06
83	0x39184fb5	0.00014525543
84	0x399c7de3	0.00029848432
85	0x3a8c7eae	0.0010718906
86	0x00000000	0.0
87	0xb8b0767c	-8.4144034e-05
88	0x390a8d80	0.00013213418
89	0x3a98ec12	0.0011667034
90	0x39434c78	0.00018625136
91	0x38ba8a08	8.8948815e-05
92	0xb81a2f87	-3.6760724e-05
93	0xb61aeeee	-2.3086864e-06
94	0xb93df239	-0.0001811468
95	0x384f7f63	4.9471284e-05
96	0x37fe2897	3.029806e-05
97	0xb7a32c6c	-1.94518e-05
98	0x3905c7c8	0.00012758293
99	0x388297c6	6.227153e-05
100	0x380d4aa4	3.3686534e-05
101	0x3a41ff7c	0.0007400436
102	0xb56ca211	-8.815269e-07
103	0xb86713da	-5.509318e-05
104	0x394be106	0.00019443416
105	0xb8950c96	-7.107218e-05
106	0x380beeb1	3.336248e-05
107	0xb7689478	-1.3862846e-05
108	0x39ab8751	0.0003271648
109	0x3a7ae232	0.0009570449
110	0xb6a38354	-4.873067e-06
111	0x39b5872a	0.00034623715
112	0x39ed4a86	0.00045259687
113	0x3a4a9635	0.0007728071
114	0x38868415	6.41422e-05
115	0x3a55fe17	0.00081631675
116	0x00000000	0.0
117	0x00000000	0.0
118	0x371b0bf0	9.241499e-06
119	0x3912e37b	0.00014008388
120	0xb948ccaf	-0.00019149737
121	0x38e4af3b	0.000109045264
122	0x3a4cdcf3	0.00078149064
123	0x3a632ac0	0.0008665733
124	0xb62e3df1	-2.5964075e-06
125	0xb85dd8ee	-5.2892537e-05
126	0x3985c3b6	0.00025513553
127	0x3a349015	0.0006887925
128	0x3a351e1c	0.00069090887
129	0x3839b4f2	4.4275956e-05
130	0x00000000	0.0
131	0xb9e6568d	-0.00043933504
132	0x38e8f83c	0.00011108859
133	0xb9ad47de	-0.00033050677
134	0xb9c811aa	-0.00038160133
135	0x383b2ecd	4.462786e-05
136	0x395e64fd	0.00021209191
137	0xb59266d2	-1.0907772e-06
138	0x00000000	0.0
139	0x389512d4	7.108381e-05
140	0xb76237ad	-1.3483613e-05
141	0xb9d43058	-0.0004047181
142	0x3a21e32e	0.0006175515
143	0xb63d9cdb	-2.8254497e-06
144	0xb9a9d06e	-0.00032389484
145	0xb99eb914	-0.00030274002
146	0xb79333bf	-1.7547862e-05
147	0xb8b20386	-8.488358e-05
148	0xb909e92a	-0.00013152199
149	0x379c6642	1.8644267e-05
150	0x00000000	0.0
151	0xb96fd585	-0.00022872358
152	0xb7af8006	-2.0921241e-05
153	0xba02735f	-0.0004976298
154	0xb9b39e16	-0.00034259324
155	0x39a0bcc8	0.0003065823
156	0x3a028f0b	0.00049804215
157	0x37a7ccc5	2.0003305e-05
158	0x3a6451d4	0.0008709703
159	0xb8b8b6a6	-8.8078246e-05
160	0xb9c2f1b2	-0.0003718264
161	0x37f8e1ae	2.9668994e-05
162	0x3940fa88	0.00018403877
163	0xb9178d31	-0.0001445308
164	0x363f2acb	2.8486127e-06
165	0xb9cb2bde	-0.0003875186
166	0x31f54769	7.138557e-09
167	0x38c9264e	9.591562e-05
168	0x3a164154	0.00057317805
169	0x38a1c659	7.7140234e-05
170	0x36bda386	5.6516756e-06
171	0x385075bf	4.9700724e-05
172	0xba36ab24	-0.0006968251
173	0xb959d281	-0.00020773151
174	0xb6f19afd	-7.2004027e-06
175	0xb9632abc	-0.00021664327
176	0x39e64b1e	0.00043924985
177	0xb964cb61	-0.00021819539
178	0xb93e4e31	-0.0001814894
179	0xb90d8f8c	-0.00013500283
180	0x00000000	0.0
181	0x00000000	0.0
182	0xb79cd250	-1.8694584e-05
183	0xb9e832d0	-0.00044288347
184	0x39e9f235	0.0004462168
185	0x38b41301	8.5866086e-05
186	0x390ee5af	0.00013627739
187	0x39b96e66	0.00035368203
188	0xb6ed5d4d	-7.074012e-06
189	0x3a06c037	0.00051403366
190	0xb936ea17	-0.00017444078
191	0xb8dbb005	-0.0001047552
192	0xba729688	-0.0009253998
193	0x368c7bfd	4.1867593e-06
194	0x00000000	0.0
195	0xb955270c	-0.00020327809
196	0xba380327	-0.00070195127
197	0x39483cb1	0.00019096096
198	0x3986f8eb	0.0002574393
199	0xbacac817	-0.0015471008
200	0x3771e7be	1.4418676e-05
201	0xb80e3203	-3.3902015e-05
202	0x00000000	0.0
203	0x39477295	0.00019020804
204	0x355a3b4c	8.1297617e-07
205	0xba865af6	-0.0010250497
206	0xba8c082e	-0.001068359
207	0xb5978058	-1.128773e-06
208	0x3782accc	1.5577672e-05
209	0x3991b2c0	0.00027789734
210	0xb7070ce4	-8.049628e-06
211	0x38df5e36	0.00010651017
212	0x393b502a	0.00017863573
213	0xba2ee222	-0.00066712697
214	0x00000000	0.0
215	0x39328371	0.00017024369
216	0x3909c4ec	0.00013138697
217	0xb9031bd0	-0.00012503495
218	0x387fe1b8	6.1006955e-05
219	0xb92a5c49	-0.00016246842
220	0xb83cc781	-4.5008495e-05
221	0x32ef7738	2.7877476e-08
222	0xb987d797	-0.00025909833
223	0xb32b6e97	-3.991462e-08
224	0x391da271	0.00015033201
225	0x38851577	6.345932e-05
226	0xb8a01aa5	-7.6343575e-05
227	0xb88fa386	-6.84923e-05
228	0x380333e0	3.1281146e-05
229	0xba4bae73	-0.00077698304
230	0x34946479	2.7640252e-07
231	0xb82dc69c	-4.1431384e-05
232	0xba8a0fa5	-0.0010533227
233	0xb9324a4d	-0.00017003082
234	0xb8007831	-3.0629515e-05
235	0xb887f893	-6.483602e-05
236	0x3914b073	0.00014180112
237	0xba1f6599	-0.0006080508
238	0x35576643	8.024255e-07
239	0xba23119c	-0.00062205805
240	0xb9b4b6ca	-0.00034468464
241	0xb9dcc1cc	-0.0004210606
242	0x38556d04	5.0884686e-05
243	0xba3d486f	-0.0007220571
244	0x00000000	0.0
245	0x00000000	0.0
246	0xb899e34a	-7.3379444e-05
247	0xb92dcbef	-0.00016574537
248	0xba0cda6a	-0.00053731224
249	0x383b6d71	4.46862e-05
250	0xb98d0b9a	-0.0002690226
251	0xb947ead6	-0.00019065602
252	0xb84c213a	-4.8668335e-05
253	0xb9a99dbb	-0.0003235171
254	0x36b62167	5.427911e-06
255	0xba1bf8f6	-0.0005949879
